models/model_data_none.pth (torch, 22231 bytes, 5 tensors)

weight f4 [64, 4]
0	0xbe10f8d6	-0.14157423
1	0x3ea103da	0.3144825
2	0x3e9f5354	0.31118262
3	0xbebac5a6	-0.3647892
4	0x3cf16fdd	0.029472286
5	0x3fa7f7a7	1.3122452
6	0x3a1037af	0.00055014616
7	0xbc55b448	-0.013043471
8	0xbdd26b2d	-0.102743484
9	0x3efb500a	0.49084502
10	0xbe252885	-0.16128738
11	0xbe199b27	-0.15000592
12	0x3ecf03b3	0.4043251
13	0x3eccc75e	0.39995855
14	0xbe904b79	-0.2818258
15	0x3e64268f	0.22280334
16	0xbee76985	-0.45197693
17	0xbf62072c	-0.88292193
18	0xbe3b87d3	-0.18313532
19	0x3de6f711	0.11277593
20	0xbd9a5376	-0.0753545
21	0xbda75150	-0.08169806
22	0xbe8d784b	-0.2763084
23	0xbf06a4ea	-0.5259539
24	0x3eccbf77	0.39989826
25	0x3c9b6fbe	0.018974181
26	0xbd842c03	-0.06453707
27	0xbf03f881	-0.5155106
28	0x3d97a308	0.074041426
29	0x3f2d6575	0.67732936
30	0x3a9a6ac3	0.0011781085
31	0xbe3fa400	-0.18714905
32	0xbe7e6e12	-0.24846676
33	0xbf823fab	-1.017568
34	0xbb246fb3	-0.0025090992
35	0x3d875f6b	0.066099964
36	0x3ecf0449	0.40432957
37	0x3ed650d6	0.41858548
38	0x3ea1fe06	0.31639117
39	0x3ea2f8a5	0.31830326
40	0xbe6f3d10	-0.23363137
41	0xbf444e44	-0.76681924
42	0xbe8e1a09	-0.27754238
43	0xbe25d5c9	-0.16194834
44	0x3ace57b3	0.0015742689
45	0x3d1cb9ec	0.038263246
46	0x3cb956ee	0.02262446
47	0x3e422ad0	0.18961644
48	0xbd89b88e	-0.06724654
49	0xbdea0f4d	-0.114287
50	0x3e6dff1d	0.23241849
51	0x3ce5c853	0.028049624
52	0xbe9f51f8	-0.31117225
53	0x3f36b5b8	0.7137103
54	0x3d9d799f	0.07689213
55	0xbe6fe625	-0.23427637
56	0xbedaad25	-0.42710224
57	0x3d914c7d	0.07094667
58	0x3e846034	0.25854647
59	0x3e4ffcfd	0.20311351
60	0x3db860d4	0.090028435
61	0xbf8170e2	-1.0112574
62	0x3d641799	0.055686567
63	0xbe9579b0	-0.29194403
64	0xbecb1f46	-0.39672297
65	0x3e206557	0.15663658
66	0x3dfb36a3	0.122662805
67	0x3e1f03a9	0.1552874
68	0x3e1758ad	0.14779921
69	0x3db576a2	0.08860518
70	0xbea919dd	-0.33027545
71	0x3e4759e3	0.19467883
72	0xbd496333	-0.04916687
73	0x3fc55b9f	1.5418586
74	0xbb2e53a6	-0.0026600151
75	0xbc4a8328	-0.012360372
76	0xbeb64e3b	-0.3560656
77	0xbc20cb73	-0.009814131
78	0x3e1e8fd2	0.1548455
79	0x3e6b50eb	0.22980087
80	0xbedf3720	-0.43596745
81	0xbe49a5ba	-0.19692126
82	0x3e021d5d	0.12706514
83	0xbead9ded	-0.3390955
84	0xbf245eae	-0.6420697
85	0xbf424ffe	-0.7590331
86	0x3e91bce9	0.2846444
87	0x3d2a0d3a	0.04151652
88	0x3f30c399	0.6904846
89	0x3fa799e5	1.309384
90	0x3cde2fac	0.027122341
91	0xbd5caf48	-0.0538781
92	0xbd91ed4c	-0.07125339
93	0xbebbc6fa	-0.36675245
94	0xbe1612b7	-0.14655577
95	0xbd97c9d7	-0.07411545
96	0xbd00641d	-0.031345475
97	0xbf350054	-0.70703626
98	0xbde3b724	-0.11118916
99	0x3dea6391	0.11444772
100	0x3e8f9fc0	0.28051567
101	0xbf91adf3	-1.138121
102	0xba202972	-0.00061096915
103	0x3d01d002	0.031692512
104	0xbdee832d	-0.116461135
105	0xbf1c817a	-0.61135066
106	0xbe912cdf	-0.28354546
107	0x3ca6fad6	0.02038328
108	0xbe12de07	-0.14342509
109	0xbf0b1ccb	-0.5434081
110	0xbdb05d2f	-0.08611523
111	0xbef197b2	-0.47186047
112	0xbe32e3ac	-0.17469662
113	0x3f74d519	0.9563766
114	0xbdd5667c	-0.10419938
115	0xbe77bc11	-0.24192835
116	0x3e2663e5	0.16249044
117	0x3f47710c	0.7790687
118	0xba8eba84	-0.0010889326
119	0xbe93c5eb	-0.28861937
120	0x3e12a7e8	0.14321864
121	0xbeca0229	-0.39454773
122	0xbe4c9a4f	-0.19980739
123	0xbca8e1e3	-0.020615524
124	0x3ded75e7	0.11594754
125	0x3f2ec9b5	0.6827653
126	0xbdf314d8	-0.1186921
127	0xbdd04083	-0.10168555
128	0xbd7ed81a	-0.06221781
129	0x3fadabb5	1.3568026
130	0x3da478d3	0.08030858
131	0xbdb715f1	-0.08939732
132	0xbe8f3ba9	-0.27975205
133	0xbf9c8684	-1.2228551
134	0x3d887054	0.0666205
135	0x3e9e49f0	0.30915785
136	0xbe12b78a	-0.14327827
137	0xbef93f0a	-0.48680907
138	0xbe5e84e8	-0.21730387
139	0x3d975ecc	0.07391128
140	0xbda5ae34	-0.08089867
141	0xbe0bed14	-0.13664657
142	0x3ea41c11	0.32052663
143	0xbe8983b7	-0.26858303
144	0x3eb6227a	0.3557318
145	0xbf713eda	-0.9423653
146	0xbc89cd6d	-0.016821587
147	0x3e441153	0.19147234
148	0xbc38fb84	-0.011290435
149	0xbf159d17	-0.58442825
150	0x3d318a56	0.043344818
151	0x3eb7791f	0.35834596
152	0x3d9a1325	0.07523183
153	0xbee38a15	-0.44441286
154	0xbea8b126	-0.32947654
155	0xbe7f65ef	-0.24941228
156	0xbe2424ca	-0.16029659
157	0x3e9dc0e7	0.30811235
158	0xbea1b859	-0.3158596
159	0xbe0686a0	-0.13137293
160	0x3ea5b9c3	0.32368287
161	0xbe827447	-0.25479338
162	0xbdf569f6	-0.11983101
163	0x3e51aa04	0.20475012
164	0x3eb72ee5	0.35777965
165	0xbfc40c68	-1.5316286
166	0xbaefbdcf	-0.001829082
167	0x3b336ef6	0.002737937
168	0xbe15e6e0	-0.14638853
169	0xbf815f4b	-1.0107206
170	0xbe11ead1	-0.14249732
171	0xbe1cd250	-0.15314603
172	0xbd34e8ba	-0.044167258
173	0xbf512fe6	-0.8171371
174	0x3e96795e	0.2938947
175	0xbdbb0569	-0.09131891
176	0xbf11bba5	-0.5692695
177	0x3e651874	0.2237261
178	0xbe836406	-0.2566225
179	0x3e9bb10a	0.30408508
180	0x3ef2c31f	0.4741449
181	0xbf709acf	-0.9398622
182	0x3e670b92	0.22563007
183	0xbeb9c7aa	-0.36285144
184	0x3ebf6a45	0.37385765
185	0xbe3c0fd8	-0.18365419
186	0xbeaa33c1	-0.3324261
187	0x3e96fdf4	0.29490626
188	0xbca2fa9a	-0.019894887
189	0x3eb09ba8	0.34493756
190	0xbec45448	-0.38345551
191	0xbeefce6a	-0.4683717
192	0xbd8b8d0a	-0.068140104
193	0x3dd49b5f	0.10381197
194	0x3de9bcbf	0.114129536
195	0x3dc82a9e	0.097737536
196	0x3e1eae7f	0.15496252
197	0x3f5d3115	0.8640302
198	0xbe7bcc31	-0.24589612
199	0xbe8a3a4c	-0.26997602
200	0xbead80d7	-0.3388736
201	0xbdea6560	-0.11445117
202	0xbe1c9e1f	-0.15294693
203	0x3e1beea0	0.15227747
204	0xbe6e25f6	-0.23256668
205	0x3f623164	0.88356614
206	0xb9e32b9f	-0.00043329314
207	0xbe980310	-0.29689837
208	0xbe1f96b6	-0.15584835
209	0xbcec122f	-0.028817264
210	0x3e5b90d8	0.21441972
211	0xbd6963ba	-0.056979872
212	0xbdbb4f0a	-0.09145935
213	0x3e793813	0.24337797
214	0x3c9fff1d	0.019530827
215	0x3e928eea	0.2862466
216	0xbdcc5dae	-0.099788055
217	0x3fca19b0	1.5789089
218	0xbab01d4d	-0.0013436467
219	0xbd051c5e	-0.032497756
220	0xbe96ad66	-0.29429168
221	0xbf49e1eb	-0.7886035
222	0xbe48d899	-0.19613875
223	0xbde73df1	-0.11291111
224	0xbf0a88dd	-0.54115087
225	0x3ef1d789	0.47234753
226	0x3eaf0e58	0.3419063
227	0xbe83c8d9	-0.25739172
228	0xbe346612	-0.17617062
229	0x3ee27fb6	0.4423806
230	0xbc95b00c	-0.018272422
231	0x3d94515c	0.072420806
232	0xbdda5f77	-0.1066274
233	0x3f1fc176	0.6240457
234	0xbe80b1a7	-0.25135538
235	0xbd4b553e	-0.04964184
236	0xbbcb277b	-0.006199775
237	0x3f45821b	0.7715165
238	0x3d86595b	0.06560012
239	0xbe9c80d3	-0.30567035
240	0x3ed063d0	0.4070115
241	0xbed50fc4	-0.4161359
242	0x3dca7219	0.09885044
243	0xbed8a1e9	-0.42311028
244	0xbe226a5f	-0.1586089
245	0x3cf1d581	0.029520752
246	0xbd97a6f1	-0.074048884
247	0x3e9a017b	0.30079255
248	0xbd769aea	-0.06020633
249	0xbf287074	-0.6579659
250	0x3e64e0b3	0.22351341
251	0xbf009eb6	-0.50242174
252	0x3e0a1b68	0.13487017
253	0x3e425179	0.18976392
254	0x3d02f10f	0.031968173
255	0xbe755e14	-0.23961669

bias f4 [64]
0	0x3e44f0e2	0.19232515
1	0xbec2abd4	-0.3802172
2	0x3d423ca5	0.047421116
3	0xbeeace67	-0.45860597
4	0x3d07256d	0.032994676
5	0xbd53497a	-0.051583745
6	0x3e24134e	0.16022989
7	0xbf10f7a9	-0.566279
8	0xbef57f9a	-0.47948915
9	0x3dda3566	0.10654716
10	0x3d981d17	0.074274234
11	0xbe615c5c	-0.22007889
12	0x3ec8492f	0.39118335
13	0x3e5f656a	0.2181603
14	0xbe8f5771	-0.279964
15	0x3f550f0a	0.8322607
16	0x3d8a5cfc	0.067560166
17	0xbe95888e	-0.29205745
18	0xbe7c29c6	-0.2462531
19	0x3deaefd9	0.114715286
20	0xbed52770	-0.4163165
21	0xbed2fd3e	-0.41208833
22	0x3e438501	0.19093706
23	0xbd40e106	-0.0470896
24	0xbe8e5bf4	-0.2780453
25	0x3eeb0e78	0.45909476
26	0xbef16980	-0.47150803
27	0x3ecb0b09	0.39656857
28	0xbc7e1d34	-0.015509892
29	0xbf1c6335	-0.6108888
30	0xbe9b14ad	-0.30289212
31	0x3ea70a4f	0.32625052
32	0x3edc5c83	0.4303933
33	0x3da8dc76	0.082451746
34	0xbe48c737	-0.19607244
35	0x3d7fb499	0.06242809
36	0xbeca934f	-0.39565513
37	0x3e828130	0.25489187
38	0x3e5b0ecd	0.21392365
39	0xbeac7367	-0.33681795
40	0x3cde04f6	0.027101975
41	0x3f56a912	0.8385173
42	0xbec6b9b4	-0.38813555
43	0xbed9dd01	-0.42551425
44	0xbef83998	-0.4848144
45	0xbe41b0cc	-0.18915099
46	0x3e867105	0.26258102
47	0xbea4445d	-0.32083407
48	0x3eaf76bd	0.34270278
49	0x3e27cf8d	0.16387768
50	0xbeb75dcc	-0.3581375
51	0xbd1083ad	-0.035281826
52	0x3ece6f9a	0.4031952
53	0xbf01a8ff	-0.5064849
54	0xbe0030a1	-0.1251855
55	0xbdc46943	-0.095903896
56	0x3e872ec7	0.26402876
57	0x3dea6258	0.11444539
58	0x3d25ce51	0.04047996
59	0x3ed58b6f	0.41707942
60	0xbde768e1	-0.11299301
61	0xbebdea2a	-0.37092716
62	0xbef6a6a6	-0.48174018
63	0x3d3092df	0.043108817

weight f4 [64, 64]
0	0xbc0784f8	-0.008271448
1	0xbe14e771	-0.14541413
2	0xbc23495c	-0.009966221
3	0x3da2c084	0.07946876
4	0xbd2da020	-0.042389035
5	0xbe0300f4	-0.12793332
6	0x3de2b559	0.110697456
7	0x3d29cbad	0.041454006
8	0xbd9b5283	-0.07584097
9	0xbd2b18df	-0.041771766
10	0x3d1a53cb	0.037677567
11	0xbd8cf960	-0.06883502
12	0x3d942ce6	0.07235126
13	0xbbbdf5d6	-0.005797128
14	0xbd84b2cc	-0.06479415
15	0xbba5f7fa	-0.0050649615
16	0xbcc67e43	-0.024230128
17	0xbdcf7d63	-0.101313375
18	0xbe0c617b	-0.13709061
19	0xbd9cf6f4	-0.0766429
20	0x3d1796ef	0.037009176
21	0xbdeb3116	-0.11483972
22	0x3d2bdf52	0.04196102
23	0xbd4ddd9e	-0.05026018
24	0xbda81756	-0.08207576
25	0x3d732198	0.05935821
26	0xbd8d3e9a	-0.06896706
27	0x3d5a77d7	0.053336944
28	0xbcff25ab	-0.031145891
29	0xbd09d6e0	-0.033652186
30	0xbd334524	-0.04376711
31	0x3d1df112	0.03855998
32	0xbc0c2085	-0.008552675
33	0xbdf6f28a	-0.120579794
34	0xbd853ebc	-0.06506106
35	0xbd94f794	-0.07273784
36	0x3d3d02c2	0.04614521
37	0xbd27f2f8	-0.041003197
38	0x3d9a7aad	0.0754293
39	0xbd5ccc81	-0.053905968
40	0x3dcc603b	0.09979292
41	0x3e6354f0	0.2220037
42	0x3d877437	0.06613963
43	0x3d3106d1	0.04321939
44	0xbd94b639	-0.07261319
45	0xbd66d90f	-0.056359347
46	0x3d13262b	0.03592507
47	0xbdd876a6	-0.105695054
48	0xbd3415c4	-0.04396607
49	0xbd95f2eb	-0.073217236
50	0x3d0b86a5	0.034063954
51	0xbd2818b7	-0.041039195
52	0x3cbea025	0.023269722
53	0xbdc64340	-0.09680796
54	0x3c9c283b	0.019062152
55	0xbda21805	-0.079147376
56	0x3c9cbebc	0.019133918
57	0xbe05fca8	-0.13084662
58	0xbdb41210	-0.08792508
59	0x3d7b49dd	0.06134974
60	0xbcebba3b	-0.028775325
61	0xbe17fa3d	-0.14841552
62	0xbd3ca60f	-0.046056803
63	0x3d155cde	0.03646552
64	0xbd7c1e09	-0.06155208
65	0xbdefd059	-0.11709661
66	0xbdbcdee0	-0.092221975
67	0x3d7f2414	0.062290266
68	0xbd26d040	-0.040725946
69	0xbddcb1d5	-0.10776106
70	0xbd3b3065	-0.04570045
71	0x3dc4a60a	0.09601982
72	0xbd975b5b	-0.073904715
73	0xbd85514e	-0.06509648
74	0xbda6ea74	-0.08150187
75	0x3cec98b2	0.028881405
76	0xbd970749	-0.073744364
77	0x3d16903f	0.036758658
78	0xbd812147	-0.06305175
79	0xbcbd5164	-0.0231101
80	0x3cfd5c91	0.030927928
81	0x3d415e25	0.047208924
82	0xbda25a52	-0.079273835
83	0xbd9a8a97	-0.07545965
84	0xbcc5314c	-0.024071358
85	0x3d97688c	0.073929876
86	0x3d15e89d	0.03659879
87	0xbdcb8d1f	-0.09939026
88	0xbd5f0549	-0.0544484
89	0x3da92cf8	0.0826053
90	0xbd95e624	-0.073192865
91	0x3daf947b	0.08573242
92	0x3d4077db	0.046989303
93	0x3e21fb8f	0.15818618
94	0x3d01c9b4	0.0316865
95	0x3cec7ca4	0.028868027
96	0xbdc4cc68	-0.096093
97	0x3d5592ef	0.05214208
98	0xba154819	-0.00056946423
99	0xbd5acada	-0.05341611
100	0xbdd2aa1a	-0.102863505
101	0xbc90a5e7	-0.017657233
102	0xbda3baf3	-0.07994642
103	0xbd41dafe	-0.047327988
104	0xbdab01a9	-0.08349926
105	0x3c9cea9e	0.019154843
106	0xbda790b4	-0.08181897
107	0xbd03f187	-0.03221276
108	0xbd7d8a3e	-0.061899416
109	0xbe094a8b	-0.13407342
110	0xbde9b598	-0.114115894
111	0xbc13c59a	-0.00901928
112	0xbd2ad546	-0.0417073
113	0x3db317f7	0.08744805
114	0x3da38a0d	0.079853155
115	0x3cbefaf1	0.023313018
116	0xbb81709e	-0.0039501926
117	0xbcf576d5	-0.02996389
118	0x3d8eb2c6	0.06967692
119	0xbbb52e11	-0.005529173
120	0x3d4bd1ed	0.049760748
121	0xbd6d20e3	-0.05789269
122	0x3d9f0370	0.077643275
123	0xbb584ae0	-0.0033003613
124	0xbd596b88	-0.053081065
125	0x3bf6c7d9	0.007531148
126	0x3c7c630b	0.015404473
127	0x3c1b52d2	0.009480195
128	0xbccf259b	-0.025286486
129	0xbe5e25ad	-0.2169406
130	0xbd604b0f	-0.05475908
131	0x3db4dc2a	0.088310555
132	0xbcd7fef7	-0.026366694
133	0xbdcdc392	-0.10047068
134	0xbb8c7d2b	-0.004287382
135	0xbe39c48f	-0.18141387
136	0xbd6f34b3	-0.058399867
137	0xbd981e9f	-0.074277155
138	0xbc2eb2b8	-0.010662727
139	0xbd781c80	-0.060574055
140	0xbc45864c	-0.012055945
141	0x3d41f01e	0.047348134
142	0x3d14b573	0.036305856
143	0x3df8074f	0.12110769
144	0xbddf659d	-0.10908053
145	0xbd7bfb6c	-0.06151907
146	0xbdbefa3c	-0.09325072
147	0x3cd3bdae	0.025847282
148	0xbb82fa9c	-0.00399716
149	0x3dc18dd9	0.094508834
150	0xbcb70c70	-0.022344798
151	0x3c3cbe27	0.011519945
152	0x3c3c7d38	0.011504464
153	0x3d91ec6c	0.07125172
154	0xbdc947b5	-0.0982813
155	0xbdd30ced	-0.103052
156	0x3b3dc0c1	0.0028954002
157	0x3dbb7883	0.09153845
158	0xbdc54746	-0.09632735
159	0xbd576ba7	-0.0525929
160	0xbd56a7b5	-0.05240603
161	0x3dfb3531	0.12266005
162	0x3da6d81e	0.0814669
163	0xba99685b	-0.0011704074
164	0xbbe1a887	-0.006886545
165	0xbda60a74	-0.081074625
166	0xbdcb8f04	-0.099393874
167	0xbd4b189b	-0.049584012
168	0x3d57fcb2	0.052731223
169	0x3e88d317	0.2672355
170	0xbd7ee46c	-0.06222956
171	0x3db87caf	0.090081565
172	0xbd3d03a8	-0.046146065
173	0x3caaa47e	0.02083039
174	0x3db6a4f9	0.08918185
175	0x3cf63982	0.030056719
176	0xbdc120ca	-0.09430082
177	0xbdad091f	-0.08449005
178	0xbd56dfaf	-0.052459415
179	0xbde10ed6	-0.10989158
180	0xbd5f105d	-0.054458965
181	0x3d8ccd3a	0.06875081
182	0xbe8c82de	-0.27443594
183	0xbd52a316	-0.051425062
184	0x3dad6199	0.08465881
185	0x3d8b657a	0.068064645
186	0xbdbe4e9c	-0.09292337
187	0xbcb42890	-0.021991998
188	0x3c8d9b4e	0.01728597
189	0x3ddba01d	0.107238986
190	0xbdcc4592	-0.09974207
191	0xb89bdc46	-7.432005e-05
192	0x3d9b91ee	0.07596193
193	0xbe2221ba	-0.15833178
194	0x3d92c5cc	0.07166633
195	0xbd97f5d0	-0.07419932
196	0xbe0c27f2	-0.13687113
197	0xbc3fc3d3	-0.011704403
198	0x3d604e0c	0.05476193
199	0xbdc313a5	-0.09525231
200	0x3dbc013e	0.091799244
201	0x3ce227e8	0.02760692
202	0x3db22df2	0.087001696
203	0x3d5e5ace	0.054285817
204	0xbcab4a80	-0.020909548
205	0xbcad395b	-0.021145513
206	0xbc43e540	-0.011956513
207	0x3d035ea0	0.032072663
208	0x3d6c9b27	0.057765152
209	0xbd285564	-0.04109706
210	0x3c251ba7	0.010077394
211	0x3a50f849	0.00079715677
212	0xbc9bbcde	-0.019010957
213	0x3daaf2e7	0.08347111
214	0xbdaf9888	-0.08574015
215	0x3dbf32fb	0.09335896
216	0x3d77032e	0.060305767
217	0xbcf6e8f8	-0.030140385
218	0xbdb215c2	-0.08695556
219	0x3ddbab4d	0.107260324
220	0xbdf0ca13	-0.117572926
221	0xbe087025	-0.1332403
222	0x3dbea20b	0.09308251
223	0xbcfff4c9	-0.031244652
224	0xbd87b568	-0.06626397
225	0xbd28dd77	-0.04122683
226	0xbcb733ea	-0.022363622
227	0xbd1fd760	-0.039023757
228	0xbdcda1b4	-0.10040608
229	0xbd873fe9	-0.06603987
230	0x3d896938	0.06709522
231	0x3c849517	0.016184373
232	0xbdae85fa	-0.08521648
233	0x3cf88bcc	0.030340098
234	0x3d415c42	0.047207125
235	0xbda433be	-0.080176815
236	0xbcf5824a	-0.029969353
237	0xbd888b13	-0.06667151
238	0xbc8d2aec	-0.01723238
239	0xbdb3acb4	-0.08773175
240	0xbd87fd4a	-0.06640108
241	0x3d08bed3	0.03338511
242	0xbd858653	-0.06519761
243	0xbc8acb78	-0.016942725
244	0xbda81253	-0.0820662
245	0x3d95e57b	0.073191606
246	0xbd819043	-0.06326344
247	0x3c88508b	0.016639968
248	0x396c3bd2	0.00022528999
249	0x3d14ea1c	0.036356077
250	0xbdd5f3b7	-0.104468755
251	0x3d31d18b	0.043412726
252	0xbdb05c4e	-0.08611356
253	0xbb26a51a	-0.0025427998
254	0x3cc3d081	0.023903133
255	0xbd6e52fd	-0.058184613

bias f4 [64]
0	0x3e256a41	0.16153814
1	0xbdc86af0	-0.09786022
2	0xbe0fe491	-0.14052035
3	0xbe5bb91b	-0.21457331
4	0x3de8d595	0.113688625
5	0xbe957612	-0.29191643
6	0xbcd60287	-0.026124252
7	0xbdf440ab	-0.11926397
8	0xbd9a59f3	-0.07536688
9	0xbda8a44e	-0.08234464
10	0xbe10cbd8	-0.1414026
11	0x3da9fcb9	0.08300156
12	0x3b95ea5b	0.0045750565
13	0x3ea80512	0.32816368
14	0xbe5cce02	-0.2156296
15	0xbea8f566	-0.32999724
16	0x3e664f94	0.22491294
17	0xbdde6441	-0.10858966
18	0xbdec26f3	-0.115308665
19	0x3d1886ad	0.03723781
20	0xbddb76bd	-0.10716007
21	0xbdeec0f5	-0.116578974
22	0x3d0c0369	0.03418294
23	0x3bf2cb2d	0.0074094743
24	0xbe4fc5e1	-0.20290329
25	0xbd702d7c	-0.058637127
26	0xbe1e6dbf	-0.15471552
27	0xbd068150	-0.032838166
28	0x3d1a94bb	0.037739497
29	0xbd0e9cb8	-0.034817427
30	0xbc66e9c3	-0.014093819
31	0x3c4457a6	0.011983788
32	0x3c716c1b	0.014735247
33	0xbd3bca29	-0.04584709
34	0x3e6e4401	0.23268129
35	0xbd957490	-0.07297623
36	0x3d8a81b5	0.06763021
37	0x3e07dd8a	0.13268104
38	0xbde7cef0	-0.11318767
39	0x3e083f71	0.13305451
40	0xbd10bbda	-0.0353354
41	0x3e3cc216	0.18433413
42	0x3d7e5947	0.06209686
43	0x3d378bbb	0.04481099
44	0xbd1e11f8	-0.038591355
45	0x3d56a1fd	0.052400578
46	0x3d58805d	0.05285679
47	0xbcc5c748	-0.024142876
48	0xbe463962	-0.19357827
49	0x3d2a4079	0.041565392
50	0x3c4623bf	0.0120934835
51	0xbd38397c	-0.044976696
52	0x3dd089af	0.10182511
53	0x3de55615	0.111980595
54	0x3d357d47	0.044308927
55	0x3db90533	0.09034195
56	0xbdf21b17	-0.11821573
57	0x3e4ee6ca	0.20205227
58	0x3e8a3bd8	0.26998782
59	0xbe43ae53	-0.19109468
60	0x3edab85e	0.42718786
61	0x3df5da98	0.12004584
62	0xbca91756	-0.02064101
63	0x3dea1b3d	0.114309765

weight f4 [1, 64]
0	0xbdbbb7d0	-0.09165919
1	0xba5f2726	-0.00085126085
2	0xbb7f33e8	-0.003894085
3	0xbbec2f7c	-0.007207809
4	0x3c485360	0.012226909
5	0xbc84f532	-0.0162302
6	0x3d9abe19	0.075557895
7	0xbba96472	-0.0051694447
8	0x3ce57d84	0.028013952
9	0x3bc38faa	0.005968054
10	0xbb10d9d5	-0.0022102494
11	0x3bffe69f	0.0078094746
12	0xbaba4ad1	-0.0014212971
13	0x3ce47eaf	0.027892439
14	0xbd10f698	-0.03539142
15	0xbbe852f3	-0.0070899664
16	0x3c9dc109	0.019257085
17	0x3aa91956	0.0012901227
18	0x3d1388ee	0.03601926
19	0xbbeed5c8	-0.0072886683
20	0x3c8faca9	0.017538385
21	0xbb7f7bb8	-0.0038983654
22	0xba96b433	-0.0011497795
23	0xbd7bcdb1	-0.06147546
24	0xbdab4bdd	-0.08364079
25	0x3b4f0cb6	0.003159327
26	0xbbc3e417	-0.005978118
27	0xbb991b5b	-0.0046724505
28	0x3b91622f	0.004436753
29	0x3c051a32	0.008123921
30	0xbb15adbb	-0.0022839147
31	0xbd63acf4	-0.055584863
32	0x3b8c3250	0.0042784587
33	0xbab66c83	-0.0013917837
34	0xbbacfc6b	-0.005279114
35	0xbb444902	-0.0029950743
36	0xbc0e4ce5	-0.008685325
37	0x3c25c1ed	0.010117036
38	0x3d08bc52	0.03338272
39	0x3cd2c71c	0.025729708
40	0x3c89eab8	0.016835555
41	0xbc002adf	-0.007822721
42	0x3a893230	0.0010467228
43	0x3bd3d01e	0.0064640185
44	0x3b527a91	0.0032116512
45	0xbbb47f06	-0.0055083064
46	0xbb041b46	-0.0020157858
47	0xbbbd46aa	-0.005776246
48	0xbc9d0f43	-0.019172316
49	0xbbe1c6bc	-0.006890146
50	0xbd3144d8	-0.043278545
51	0xbb020778	-0.0019840878
52	0x3b1c0376	0.0023805774
53	0x3be72d5a	0.007054967
54	0xbbbd9599	-0.0057856557
55	0xbadfd558	-0.0017077131
56	0x3d98fe2c	0.074703544
57	0xbc4c07b1	-0.012453006
58	0x3c15848c	0.00912584
59	0xbcf27000	-0.029594421
60	0xbcfaf5ac	-0.030634724
61	0x3c515e08	0.012778766
62	0x3bbe59d3	0.0058090477
63	0x3cabbac7	0.020963086
