models/model_data_ft.pth (torch, 22215 bytes, 5 tensors)

weight f4 [64, 4]
-0.062488098 -0.30338734 -0.08375894 -0.2660565 -0.06723821 0.5192422 0.19953054 -0.4482578
0.08162096 0.47792268 -0.48118025 -0.43042737 -0.08073436 0.2965538 -0.030295081 -0.55941296
0.2607939 -0.3944803 0.54859805 -0.23287098 -0.056012083 -0.17929198 0.12522191 0.37965727
-0.08293556 0.3485926 0.11640391 -0.45405412 0.125836 -0.3929439 -0.08765519 0.124781996
0.10709713 0.2139737 0.17882541 -0.4535154 -0.36841685 -0.20162576 -0.36528045 0.016579807
0.17012744 -0.08908236 -0.33282658 0.40934858 -0.09464927 0.0820781 -0.11060908 0.49918365
0.04007509 0.24326149 -0.18054229 -0.38345388 -0.37061512 -0.4205581 -0.30170387 -0.4881854
0.24749604 -0.5604814 -0.123217076 0.33770218 0.0022355937 0.6283819 0.0020735397 -0.020746753
0.076112926 0.115309715 -0.12629294 0.2935936 -0.057322998 -0.07780022 -0.08518846 0.48332724
-0.017217614 0.04013522 0.13822764 0.49661586 0.11914861 -0.4115184 -0.40274733 0.4583913
0.23967993 0.20507023 -0.0939229 -0.2907814 -0.08351344 0.1523276 -0.4786297 -0.32027465
0.074475884 -0.27735096 0.56484866 -0.3131346 -0.15270318 0.36617056 -0.23213133 -0.11319714
0.22215664 0.1999881 -0.3638995 0.60675097 -0.10849335 -0.00032443507 0.3138054 0.53785175
-0.039497226 0.26464888 0.046516784 -0.3688522 0.014355225 -0.3432527 0.0003038341 0.48844278
0.23647122 -0.44362777 -0.34754756 -0.29165056 0.1320058 -0.47832003 0.034841403 -0.28075814
0.0789436 0.53628784 -0.26537892 -0.032622088 0.2568439 -0.07685597 0.28757644 0.11085596
-0.16392565 0.6198778 0.12889253 -0.36531985 -0.1489839 -0.16854501 0.2817648 -0.37383044
0.0046315687 0.66077495 0.0039626127 -0.031039724 -0.2362054 0.45880622 -0.09910755 -0.22105029
-0.07091409 -0.1713959 -0.08394247 -0.27041894 0.20711741 0.33894655 -0.16208066 -0.2684714
-0.008917218 0.66338456 -0.018713195 -0.040256258 -0.063580945 -0.3428481 -0.29023194 0.39546797
-0.31112036 -0.45623234 0.14415167 0.17746241 -0.1786894 -0.4561812 0.03508911 0.22527525
-0.13708927 0.20752221 0.4493721 -0.44352883 0.32753044 0.36960295 0.24910492 0.0332692
-0.459139 0.2625472 0.1977036 -0.48132133 0.052652884 -0.7391282 0.021980606 -0.38507658
0.20281203 0.41509268 0.15019809 -0.021958474 -0.15240617 0.6021158 -0.016003944 -0.064723276
-0.047702815 -0.32830742 -0.0986108 -0.38809004 -0.01741596 -0.43311566 0.5121601 -0.37550762
-0.042906508 0.0030053002 0.15476255 0.6296449 -0.02257812 -0.45023763 0.09928441 -0.21708435
0.19847232 0.2106528 0.40003973 -0.41825306 -0.15346843 -0.29213023 -0.3039099 0.09316605
-0.4283389 0.022141874 -0.46813118 -0.313388 0.10033855 0.49836165 0.12311883 -0.33261177
-0.012779162 0.44759443 0.17784941 -0.14200346 -0.062463928 -0.8300865 0.0914653 -0.060378417
0.0030813813 -0.3802094 -0.37826085 -0.060269535 0.17570847 -0.5908352 -0.21663903 -0.07373926
0.10166086 -0.03621288 0.33254415 -0.592919 -0.22689934 0.53834665 0.029955043 -0.057681393
-0.009150653 0.46353766 -0.00801395 -0.04842806 -0.38073954 0.10038086 0.28153592 0.26687706
00000000: 85f3 7fbd 9655 9bbe cf89 abbd 8f38 88be
00000010: 30b4 89bd 0fed 043f bc51 4c3e 0c82 e5be
00000020: e428 a73d 48b2 f43e 425d f6be fa60 dcbe
00000030: 0e58 a5bd e6d5 973e 642d f8bc b035 0fbf
00000040: c786 853e 52f9 c9be ec70 0c3f bb75 6ebe
00000050: ed6c 65bd 5198 37be 2c3a 003e 7062 c23e
00000060: 1eda a9bd bb7a b23e 2c65 ee3d c879 e8be
00000070: 27db 003e f12f c9be 9084 b3bd b48d ff3d
00000080: bd55 db3d ec1b 5b3e 021e 373e 2c33 e8be
00000090: 22a1 bcbe fc76 4ebe 0a06 bbbe 60d2 873c
000000a0: e335 2e3e d070 b6bd 3f68 aabe 2396 d13e
000000b0: 7ad7 c1bd 9018 a83d 0387 e2bd 0095 ff3e
000000c0: c725 243d 8a19 793e 14e0 38be 1154 c4be
000000d0: 44c1 bdbe 6453 d7be ee78 9abe 70f3 f9be
000000e0: 9a6f 7d3e b67b 0fbf 3c59 fcbd 4de7 ac3e
000000f0: 0a83 123b a3dd 203f 39e4 073b 18f5 a9bc
00000100: 18e1 9b3d 8027 ec3d f052 01be e651 963e
00000110: 85cb 6abd b955 9fbd 4a77 aebd ab76 f73e
00000120: f40b 8dbc d464 243d 8c8b 0d3e 6f44 fe3e
00000130: 3004 f43d 8ab2 d2be e634 cebe 44b2 ea3e
00000140: a86e 753e eefd 513e a65a c0bd 4de1 94be
00000150: 1809 abbd c4fb 1b3e f40e f5be 0afb a3be
00000160: d086 983d f200 8ebe ec99 103f 2e53 a0be
00000170: 395e 1cbe b57a bb3e d6b3 6dbe e7d3 e7bd
00000180: 087d 633e aec9 4c3e 0951 babe 0854 1b3f
00000190: c331 debd f018 aab9 1aab a03e a7b0 093f
000001a0: d8c7 21bd 0f80 873e 6288 3e3d 32da bcbe
000001b0: 2d32 6b3c d1be afbe ec4b 9f39 2c15 fa3e
000001c0: 8325 723e 2e23 e3be c1f1 b1be 3953 95be
000001d0: 872c 073e 5de6 f4be dcb5 0e3d 88bf 8fbe
000001e0: 2fad a13d 294a 093f bfdf 87be bd9e 05bd
000001f0: 0b81 833e aa66 9dbd 383d 933e 7308 e33d
00000200: 20dc 27be 50b0 1e3f 67fc 033e 340b bbbe
00000210: 3c8f 18be 1097 2cbe 7a43 903e b466 bfbe
00000220: 6ac4 973b 8c28 293f ced8 813b 0547 febc
00000230: d4df 71be a6e8 ea3e e6f8 cabd 025b 62be
00000240: 683b 91bd 6882 2fbe 08ea abbd 5a74 8abe
00000250: 9616 543e 678a ad3e 79f8 25be 1575 89be
00000260: 8619 12bc 92d3 293f 6a4c 99bc bfe3 24bd
00000270: ba36 82bd c989 afbe 4899 94be c77a ca3e
00000280: 2b4b 9fbe 4997 e9be 7f9c 133e b5b8 353e
00000290: 5bfa 36be 9590 e9be 99b9 0f3d 8eae 663e
000002a0: 2161 0cbe b480 543e 1a14 e63e 3616 e3be
000002b0: 12b2 a73e 993c bd3e 5c15 7f3e 4945 083d
000002c0: 4414 ebbe 966c 863e d072 4a3e c06f f6be
000002d0: 8daa 573d 8137 3dbf ac10 b43c c228 c5be
000002e0: f5ad 4f3e 0787 d43e 87cd 193e 42e2 b3bc
000002f0: 5d10 1cbe 4324 1a3f b41a 83bc a38d 84bd
00000300: 0764 43bd e917 a8be 76f4 c9bd bdb3 c6be
00000310: eaab 8ebc 56c1 ddbe ed1c 033f 8942 c0be
00000320: bcbe 2fbd 92f4 443b 137a 1e3e 6830 213f
00000330: c0f5 b8bc 8c85 e6be a055 cb3d 5c4b 5ebe
00000340: 543c 4b3e 5eb5 573e 02d2 cc3e 4425 d6be
00000350: d426 1dbe 1892 95be 149a 9bbe d8cd be3d
00000360: 3c4f dbbe e062 b53c e4ae efbe 6474 a0be
00000370: 4c7e cd3d 4229 ff3e ba25 fc3d 174c aabe
00000380: b15f 51bc 192b e53e 281e 363e 5b69 11be
00000390: 2dda 7fbd 8d80 54bf 2952 bb3d 5c4f 77bd
000003a0: 00f1 493b ceaa c2be 68ab c1be 30dd 76bd
000003b0: ecec 333e fa40 17bf 9fd6 5dbe 9c04 97bd
000003c0: 9233 d03d f553 14bd 3a43 aa3e 8ac9 17bf
000003d0: 4d58 68be 16d1 093f 4764 f53c 5343 6cbd
000003e0: 9fec 15bc cf54 ed3e f14c 03bc 805c 46bd
000003f0: 4bf0 c2be 7b94 cd3d 7a25 903e 1ca4 883e

bias f4 [64]
0.28745124 0.19627084 0.17647962 0.35733348 -0.32433367 -0.04352757 0.1514309 0.31229955
0.12960126 -0.098659515 -0.11976466 -0.28860408 0.2455493 -0.036411226 0.08371471 -0.13794494
-0.4822055 -0.15593061 -0.3979776 0.21400431 -0.0579648 -0.45321834 -0.19608271 0.0014576963
-0.5153529 -0.44279662 0.12653539 0.12181089 0.26683056 0.34378314 0.06301058 -0.15009117
-0.195562 -0.2611094 -0.1504343 0.026717048 -0.32760006 -0.16329066 -0.12196839 0.33524105
0.31041712 0.23271029 0.15849535 -0.44320446 -0.47137272 0.3522255 0.025639031 0.025160955
0.42173615 0.060447246 -0.43766502 -0.43448687 -0.1411227 -0.48885942 -0.26542538 -0.32570666
-0.14091276 0.32327268 -0.2977826 0.24188435 0.38393015 -0.14997923 -0.07512585 0.23844726
00000000: cf2c 933e 39fb 483e 13b7 343e 6af4 b63e
00000010: 100f a6be f749 32bd b410 1b3e bae5 9f3e
00000020: 31b6 043e 000e cabd 2d47 f5bd eac3 93be
00000030: 4771 7b3e f023 15bd 9e72 ab3d 7041 0dbe
00000040: a4e3 f6be 46ac 1fbe b8c3 cbbe f223 5b3e
00000050: 806c 6dbd 3c0c e8be e8c9 48be 2c10 bf3a
00000060: 2bee 03bf 3db6 e2be 7e92 013e fd77 f93d
00000070: 049e 883e 5804 b03e b10b 813d 80b1 19be
00000080: 6841 48be 22b0 85be 730b 1abe b6dd da3c
00000090: 32bb a7be ab35 27be 90ca f9bd b7a4 ab3e
000000a0: feee 9e3e 9b4b 6e3e 9b4c 223e b2eb e2be
000000b0: c457 f1be e756 b43e f208 d23c 591e ce3c
000000c0: cded d73e 8897 773d a115 e0be 1075 debe
000000d0: 7882 10be c84b fabe d6e5 87be 06c3 a6be
000000e0: 6f4b 10be ff83 a53e f676 98be 88b0 773e
000000f0: 7e92 c43e 2894 19be 95db 99bd 852b 743e

weight f4 [64, 64]
-0.53459257 -0.09951155 0.048333656 0.153972 -0.19668284 -0.13714184 -0.019576006 -0.025186751
0.097033426 -0.05838205 -0.031617768 -0.14041471 0.05019162 -0.08666615 -0.023802726 0.09781298
0.0005309284 -0.22117393 -0.28509223 0.0064179827 0.16392829 0.0570098 -0.22133051 0.14476985
-0.064165615 -0.26413542 0.039612427 -0.029698532 -0.26394492 -0.06596919 0.101577304 0.05584107
-0.0057017826 0.12207878 0.07654249 0.14752422 0.07873398 0.17044456 -0.054720044 0.00095974
-0.017367465 -0.092855364 0.09584021 -0.10066354 0.040556416 -0.25689358 -0.023061123 0.0050154086
-0.24585767 -0.19804966 -0.23455103 0.025102645 0.044997606 -0.047249407 -0.057409853 -0.0050132894
-0.08157664 -0.23451784 0.021120235 -0.15577535 0.0058011273 0.122043796 0.10978143 0.08353171
-0.3662254 0.003845347 0.10140271 -0.06017965 -0.2134793 -0.064949505 0.12939411 -0.025301717
-0.022875067 0.11225738 -0.16298555 -0.16165629 -0.019634355 -0.073440865 -0.047025308 0.11060683
0.04821019 -0.2688656 -0.26670408 -0.064697884 0.06166624 -0.05887586 -0.18549891 0.04056772
-0.08523772 -0.113353215 -0.076437704 0.00056345586 -0.22030652 -0.0911514 0.032389876 -0.010277826
0.06306791 0.05147481 -0.0579486 0.09839354 -0.037688658 0.10281164 0.020360887 -0.07076588
-0.05054397 -0.10533771 0.080461726 0.069269784 -0.124107 -0.1322002 0.02158605 -0.029443441
-0.10535701 -0.18959759 -0.16059768 0.09225586 0.069502436 -0.039086223 -0.06652403 0.08417466
-0.04178662 -0.116884366 0.08541012 -0.09630205 -0.032516554 -0.05241363 0.028912153 0.008748225
-0.39598984 -0.033255093 0.15526499 -0.007742798 -0.18320297 -0.007849922 -0.027985698 0.033706907
0.10851565 -0.016947672 -0.19419949 -0.09126867 0.08800208 0.0153864175 -0.13265863 0.11940252
0.03027144 -0.11983936 -0.18281136 -0.04536268 -0.028990062 -0.04644999 -0.11518263 0.23494318
-0.05031102 -0.07173331 0.16295497 -0.06032454 -0.15960811 -0.043116633 0.044479717 0.029174197
0.14685199 -0.027925506 0.08178884 0.12277212 -0.115637735 0.2387874 0.110744596 -0.01787316
-0.075360596 -0.13357785 -0.034036104 -0.06634063 -0.080102324 -0.2506768 0.0801792 0.034442045
-0.21270165 -0.035018407 -0.12625983 -0.099313885 0.11326539 0.058324605 -0.044927552 0.1909751
-0.06564056 -0.2122267 -0.077106446 -0.2969679 0.08264742 0.008386079 0.029469354 0.049414307
-0.34029672 0.08059488 0.11792471 -0.03906485 -0.24680863 -0.09833614 0.09171221 0.032266933
-0.0051621837 -0.086931825 -0.017856678 -0.045162883 0.12936765 -0.031848297 -0.061242033 0.009013505
-0.038100883 -0.24819686 -0.2686975 -0.21032216 0.035311922 0.08913353 -0.06844237 0.21648584
-0.07928399 -0.098714404 0.12292399 -0.3005443 -0.21540792 -0.016600652 0.026523145 -0.03741176
0.08738307 -0.041276246 0.023688225 0.012367084 0.091812 0.15614201 -0.013161954 -0.19015776
-0.06095509 -0.26389736 0.08565093 0.0192105 -0.043069795 -0.057503276 0.03874988 0.06602462
-0.18330462 -0.042022582 -0.31375688 -0.045078054 -0.059941992 0.012525424 -0.0015019327 0.14363106
0.07937159 -0.18040092 -0.12373401 -0.1563178 0.09312833 0.10881089 0.0031610772 -0.052837986
00000000: 0fdb 08bf b6cc cbbd 83f9 453d d6aa 1d3e
00000010: 3a67 49be e96e 0cbe dc5d a0bc 7254 cebc
00000020: 76b9 c63d 0422 6fbd a281 01bd e0c8 0fbe
00000030: ba95 4d3d 067e b1bd effd c2bc 2c52 c83d
00000040: 002e 0b3a 6b7b 62be 9cf7 91be f14d d23b
00000050: d1dc 273e 1c83 693d 77a4 62be 8c3e 143e
00000060: 4369 83bd c23c 87be a440 223d 564a f3bc
00000070: ca23 87be db1a 87bd c307 d03d 9bb9 643d
00000080: 05d6 babb 7004 fa3d 4fc2 9c3d 9710 173e
00000090: 483f a13d 0589 2e3e 2022 60bd 1097 7b3a
000000a0: 3746 8ebc f42a bebd df47 c43d b028 cebd
000000b0: 7c1e 263d 8e87 83be aeea bcbc 4c58 a43b
000000c0: 1dc2 7bbe 88cd 4abe 252e 70be 10a4 cd3c
000000d0: 694f 383d 9888 41bd 9826 6bbd 8546 a4bb
000000e0: a711 a7bd 7225 70be 5804 ad3c 9383 1fbe
000000f0: 6217 be3b 19f2 f93d 16d5 e03d ac12 ab3d
00000100: e581 bbbe 3802 7c3b 39ac cf3d f07e 76bd
00000110: 519a 5abe 3f04 85bd e47f 043e 8c45 cfbc
00000120: 7e64 bbbc 32e7 e53d afe5 26be 3a89 25be
00000130: 3ad8 a0bc 2a68 96bd 9c9d 40bd d585 e23d
00000140: 0c78 453d c0a8 89be 708d 88be 5380 84bd
00000150: bd95 7c3d d027 71bd 6df3 3dbe 562a 263d
00000160: 1d91 aebd bb25 e8bd 5f8b 9cbd e2b4 133a
00000170: 0898 61be 96ad babd 3fab 043d 5464 28bc
00000180: c029 813d 40d7 523d 835b 6dbd 8d82 c93d
00000190: 6c5f 1abd e98e d23d e0cb a63c b4ed 90bd
000001a0: 3207 4fbd 4cbb d7bd 1ec9 a43d 51dd 8d3d
000001b0: d02b febd 7d5f 07be 3ad5 b03c 5f33 f1bc
000001c0: 6bc5 d7bd df25 42be b873 24be a4f0 bc3d
000001d0: 4b57 8e3d e018 20bd c03d 88bd c463 ac3d
000001e0: 7228 2bbd 1261 efbd 80eb ae3d 023a c5bd
000001f0: 1430 05bd adaf 56bd 2ed9 ec3c b754 0f3c
00000200: 2ebf cabe 7e36 08bd c9fd 1e3e 4cb7 fdbb
00000210: 8f99 3bbe f69c 00bc 4342 e5bc 4110 0a3d
00000220: 743d de3d d8d5 8abc 3bdc 46be 12eb babd
00000230: 6f3a b43d 5017 7c3c aad7 07be 4f89 f43d
00000240: d0fb f73c 576e f5bd e732 3bbe 38ce 39bd
00000250: 917c edbc 5842 3ebd dfe4 ebbd f294 703e
00000260: ee12 4ebd eae8 92bd abdd 263e dd16 77bd
00000270: 4f70 23be 119b 30bd 5d30 363d bafe ee3c
00000280: 5e60 163e 08c4 e4bc e880 a73d f36f fb3d
00000290: 7ad3 ecbd af84 743e 10ce e23d bc6a 92bc
000002a0: a856 9abd a2c8 08be 7169 0bbd 99dd 87bd
000002b0: b00c a4bd b658 80be fe34 a43d 1a13 0d3d
000002c0: 76ce 59be 766f 0fbd 424a 01be 1465 cbbd
000002d0: aff7 e73d c8e5 6e3d f405 38bd fa8e 433e
000002e0: 8f6e 86bd f551 59be fce9 9dbd 2d0c 98be
000002f0: 0d43 a93d c465 093c b769 f13c a866 4a3d
00000300: 5f3b aebe ee0e a53d 8382 f13d 7702 20bd
00000310: 67bb 7cbe 7564 c9bd 9cd3 bb3d 552a 043d
00000320: 8927 a9bb 5009 b2bd 2b48 92bc b7fc 38bd
00000330: f478 043e 5c73 02bd edd8 7abd 61ad 133c
00000340: ac0f 1cbd 5127 7ebe b892 89be b15e 57be
00000350: 3ca3 103d a48b b63d 832b 8cbd 77ae 5d3e
00000360: a55f a2bd c72a cabd 93bf fb3d f1e0 99be
00000370: e593 5cbe 17fe 87bc 1147 d93c 133d 19bd
00000380: e5f5 b23d 4811 29bd cf0d c23c 4f9f 4a3c
00000390: ee07 bc3d b1e3 1f3e 3ca5 57bc b7b8 42be
000003a0: 0bac 79bd 8e1d 87be c169 af3d 575f 9d3c
000003b0: f469 30bd 8e88 6bbd 32b8 1e3d ea37 873d
000003c0: 35b4 3bbe df1f 2cbd bea4 a0be c4a3 38bd
000003d0: bc85 75bd 7037 4d3c 80dc c4ba 0514 133e
000003e0: 928d a23d 05bb 38be 4268 fdbd c611 20be
000003f0: 11ba be3d 3ed8 de3d 132a 4f3b a56c 58bd

bias f4 [64]
0.11967488 0.13556011 0.08034102 0.014346014 0.046615943 0.102133036 0.09992206 0.20260634
0.20461461 0.092090935 0.22595766 0.111357056 0.059046973 -0.04471683 0.1780777 -0.26715037
0.0878049 0.15960434 0.09696819 0.11801366 0.17271544 0.079470225 -0.018320905 0.18799753
0.20065439 0.11894811 0.17903253 0.13576676 0.057225876 0.0823484 0.06389672 0.02783034
0.11733308 0.13800116 -0.012946811 0.049508918 0.043820903 0.015370751 -0.09962554 0.07463288
0.1534214 0.09713936 0.20936821 0.19407304 0.15219133 0.11231975 0.160197 -0.05636712
0.20880209 0.04897233 0.019837897 0.14659353 0.13321039 0.19566971 0.19737343 0.21359006
-0.039396062 0.107618354 -0.13208057 -0.022302441 -0.040980503 0.05510782 0.017291153 0.12991023
00000000: 1a18 f53d 45d0 0a3e d589 a43d 8b0b 6b3c
00000010: 5cf0 3e3d 202b d13d f0a3 cc3d 0978 4f3e
00000020: 7e86 513e 2c9a bc3d 7261 673e 2b0f e43d
00000030: 3ddb 713d ff28 37bd 005a 363e efc7 88be
00000040: 0ed3 b33d 526f 233e 4297 c63d 25b1 f13d
00000050: 51dc 303e 49c1 a23d b915 96bc 6d82 403e
00000060: 5878 4d3e 119b f33d 4e54 373e 7106 0b3e
00000070: ae65 6a3d 47a6 a83d 49dc 823d 74fc e33c
00000080: 534c f03d 2d50 0d3e dc1e 54bc ddc9 4a3d
00000090: 8c7d 333d 9ad5 7b3c 7a08 ccbd 20d9 983d
000000a0: 801a 1d3e 00f1 c63d 9f64 563e 15bb 463e
000000b0: 0bd8 1b3e e607 e63d af0a 243e 36e1 66bd
000000c0: 37d0 553e 3697 483d 1683 a23c 9d1c 163e
000000d0: 4e68 083e a45d 483e 431c 4a3e 5ab7 5a3e
000000e0: c45d 21bd 0367 dc3d 2140 07be 9cb3 b6bc
000000f0: 2cdb 27bd bdb8 613d 2da6 8d3c 3007 053e

weight f4 [1, 64]
0.13534534 0.20477095 0.09262199 0.14556842 -0.20020169 -0.2432456 -0.21566206 -0.32528016
-0.19240002 0.19666927 0.1653372 -0.12930326 0.18837686 -0.22370611 -0.21327415 0.40088817
0.13703325 -0.16155437 0.17625356 -0.08211549 -0.16139634 0.15252793 -0.28363866 -0.27545926
0.14500533 0.19998749 -0.15259391 -0.27556646 -0.3066524 -0.077529505 0.10421128 0.19526993
-0.22466578 0.16160531 0.26471815 -0.09217417 0.22709744 -0.19984281 -0.002066692 0.30130428
-0.22078735 0.2295703 -0.21872135 0.11945922 0.13302182 -0.15236363 -0.18790194 -0.09363183
0.17886636 -0.11231704 -0.14271522 -0.1783899 0.14705785 0.20814477 -0.34274942 -0.31246814
-0.17248137 -0.15719001 -0.073286906 0.091115296 0.10227101 0.0754774 0.2705215 -0.13493079
00000000: f897 0a3e 7aaf 513e 99b0 bd3d e30f 153e
00000010: ac01 4dbe 6015 79be 84d6 5cbe 1f8b a6be
00000020: 8304 45be ab63 493e 284e 293e 1368 04be
00000030: dde5 403e 3713 65be 8a64 5abe 3741 cd3e
00000040: 7252 0c3e 826e 25be d07b 343e 2b2c a8bd
00000050: 1545 25be 4830 1c3e 1639 91be ff08 8dbe
00000060: 477c 143e 85c9 4c3e 9441 1cbe 0c17 8dbe
00000070: 8b01 9dbe cac7 9ebd b96c d53d d7f4 473e
00000080: c90e 66be dd7b 253e 2389 873e d0c5 bcbd
00000090: 3b8c 683e 98a3 4cbe 5771 07bb 8e44 9a3e
000000a0: 1416 62be 7a14 6b3e 7df8 5fbe 09a7 f43d
000000b0: df36 083e 3605 1cbe 5e69 40be 0bc2 bfbd
000000c0: be28 373e 7a06 e6bd f023 12be d8ab 36be
000000d0: 5596 163e e723 553e da7c afbe d3fb 9fbe
000000e0: f59e 30be 6bf6 20be 7217 96bd a89a ba3d
000000f0: 7773 d13d e593 9a3d cb81 8a3e 4c2b 0abe
