models/model_data_f.pth (torch, 22207 bytes, 5 tensors)

weight f4 [64, 4]
000000 6e 1a 92 bd db 05 11 3d 4c 7e cb bd 96 0b 3d bd
       -0.07133947 0.035405975 -0.099361986 -0.046153627
000010 45 b7 5c 3d e6 63 e6 3e 23 2a a8 be cd 79 42 be
       0.053885717 0.4499809 -0.32844648 -0.18991776
000020 20 63 62 3e e3 a8 84 3e 1d 0c 6a be a1 aa bf be
       0.22108126 0.259101 -0.22856183 -0.37434867
000030 00 a2 3f 3b 02 cb fd be c0 61 e8 3c bc 3f 13 3e
       0.0029240847 -0.49568945 0.028366923 0.14379781
000040 52 b4 cb 3d 72 69 63 3e 16 e6 4c 3e 68 6b d6 be
       0.09946503 0.22208193 0.20009646 -0.4187882
000050 3f 5d 18 bf 6d 78 59 3c a6 29 83 be c2 e3 2f 3d
       -0.5951728 0.013273341 -0.25617713 0.042941816
000060 8a 2c ac 3e d6 23 9c 3e 5e 5a 96 3d b6 cd 02 bf
       0.3362773 0.3049609 0.07341455 -0.5109514
000070 1d 1a 7b 3e 8f 1b 7f bd c0 3e cd 3e 8e 51 e4 be
       0.2452168 -0.06228214 0.40086937 -0.4459347
000080 34 1b 0a be 34 5a 06 3e e0 a2 9a be 40 3c 5a bd
       -0.1348694 0.13120347 -0.3020239 -0.053280115
000090 ca 09 7a 3b a6 2a 34 3e 52 df 82 3e 3b 8b 4a be
       0.0038152807 0.17594394 0.25561005 -0.19779675
0000a0 0e ca 91 be f8 39 d4 bd e2 e6 95 be f0 45 3b be
       -0.28474468 -0.10362619 -0.29277712 -0.18288398
0000b0 d7 17 1b bd 95 72 e2 be 48 f8 00 be 5b d2 59 be
       -0.037864532 -0.44228044 -0.12594712 -0.2127165
0000c0 76 23 f0 3e d1 ac ed be 61 23 f5 3e c9 5d dc be
       0.46902055 -0.4642091 0.47878554 -0.43040302
0000d0 02 e3 10 3d f9 eb 02 3f 7b 26 52 3e 7b 09 02 3d
       0.03537274 0.51141316 0.20522492 0.031747323
0000e0 5a 6c d7 bc 5f de 16 bf 79 2a 70 3e a1 f4 a6 3b
       -0.026296783 -0.5893306 0.23453702 0.00509508
0000f0 1e ab 77 be 70 a9 d6 3d a9 97 64 3e cc 96 b5 be
       -0.2418637 0.104815364 0.22323479 -0.3546661
000100 3b 0a a4 3e 3d 9f f0 3d c5 3c 02 bf 52 6d 80 bb
       0.32039055 0.11749122 -0.50873977 -0.003919282
000110 fe 4e 0b be 58 8a 73 be e7 83 12 3e 59 68 bb 3e
       -0.13604352 -0.23783243 0.14308129 0.36603048
000120 db fc 99 3e 79 ab 53 3e d6 32 ab 3e 63 a6 c6 be
       0.30075726 0.2067088 0.33437222 -0.38798818
000130 45 ae 32 3e 42 c4 a9 3e 0d 7c ae be 67 80 52 be
       0.17449291 0.33157545 -0.34079018 -0.20556794
000140 7e 5a da 3d c6 eb dc be 60 7b 13 3e fb 82 9f 3e
       0.10661791 -0.4314863 0.14402533 0.31154618
000150 46 39 8d bd 2f cb 8e be cf eb 15 3e c2 80 11 3f
       -0.0689569 -0.27889392 0.14640735 0.56837094
000160 43 41 96 3e 00 3a 92 3d 6e cc 31 3e 96 3f a7 be
       0.29346666 0.07139969 0.1736314 -0.326657
000170 99 5a 8e bd b6 68 cc 3e 05 11 81 be c8 27 af be
       -0.06950874 0.39923638 -0.25208297 -0.34210038
000180 e0 c6 fe 3d fc e3 b8 3e 64 77 83 3e 56 3c e0 be
       0.12440276 0.36111438 0.25677025 -0.43796033
000190 f2 2e 2a 3e 42 58 22 3d f7 30 1d 3e 7a 7b be be
       0.1661947 0.03963495 0.1535071 -0.3720358
0001a0 c7 aa d6 bb f9 5e 82 3d 46 c6 28 3d 83 36 f8 3e
       -0.00655112 0.06365771 0.041204713 0.4847909
0001b0 11 7b 52 be 65 2d be be f3 04 5a be 74 db 86 3e
       -0.20554759 -0.37144008 -0.2129095 0.26339304
0001c0 83 7d 78 3e d9 7c fc 3d a0 84 50 3d bb 52 13 3e
       0.24266629 0.123285 0.05090773 0.14387028
0001d0 03 04 39 3d ce 3b 05 bf 4e 01 95 3d f5 fb 8d 3e
       0.04516984 -0.5204438 0.072756395 0.2773129
0001e0 5d bf 85 bb d3 07 f2 3e 61 7b a5 3e 10 96 98 bc
       -0.00408165 0.47271594 0.32320693 -0.018626243
0001f0 80 d8 b8 3b b0 32 33 be 2c 66 d2 be 50 8f 24 bd
       0.005641043 -0.17499804 -0.41093576 -0.040175736
000200 da 08 bc 3e ff 22 4d be 9d 41 a7 be d1 84 b7 3e
       0.36725503 -0.20032881 -0.32667246 0.35843518
000210 e2 5c 88 3d f4 f2 73 be ba 04 a4 3e a1 d8 4b bd
       0.06658341 -0.23823148 0.32034856 -0.04976714
000220 29 b1 af bc 0b f3 83 be 25 7d 31 bd b9 6c e1 be
       -0.021446781 -0.25771365 -0.043332238 -0.4402826
000230 c0 3d 58 3e 52 08 fe be 78 fa 6d be cc d7 34 3e
       0.21117306 -0.49615723 -0.23240077 0.17660445
000240 1a 37 94 be d9 21 03 3f c3 af 0d 3e ea 0c b0 be
       -0.2894829 0.5122352 0.13836579 -0.34384853
000250 34 e4 e4 3c 1c ca 25 bf 35 9c f4 bd 62 ac f1 bd
       0.027940847 -0.6476152 -0.119438566 -0.118004575
000260 2c 6a 99 be 4e 8d 83 be 61 c8 55 3e f9 71 91 3e
       -0.29963815 -0.25693744 0.2087722 0.28407267
000270 9e a2 90 3d e4 ba 3a 3e 77 67 89 be a4 83 a4 be
       0.07062267 0.18235356 -0.2683675 -0.32131684
000280 b6 4a ac bd 02 a1 ff 3e 71 ec 42 be ba ab 9c bd
       -0.084126875 0.49927527 -0.19035508 -0.07649942
000290 88 58 08 bf 7c de 37 be ec c8 17 be d3 18 f9 3e
       -0.5326009 -0.17955965 -0.1482274 0.48651752
0002a0 4e a3 b8 be 78 54 f9 3d 9c 67 35 be b2 3f ed be
       -0.36062092 0.12174314 -0.17715305 -0.46337658
0002b0 60 6b c5 3b 4c b4 4c 3d 22 44 10 be a7 ae db 3e
       0.006024763 0.049976632 -0.1408849 0.42906687
0002c0 0b ca 35 3e 86 d6 0a bf be 6c 6d 3e ba 7c 68 3e
       0.17752855 -0.54233587 0.23186013 0.2270383
0002d0 d8 48 b5 bd 84 90 5c 3e 68 9d 57 be 68 d6 a2 bd
       -0.088517845 0.21539503 -0.2105614 -0.07951051
0002e0 5e ce c7 be 9f 37 b2 3e 7b aa 85 be 1a 3a ad 3d
       -0.39024633 0.3480806 -0.2610663 0.084583476
0002f0 ec 9a 9c be 28 74 d6 be 1d 77 04 3f 32 3b 75 be
       -0.30586946 -0.41885495 0.5174425 -0.23948362
000300 9c f8 dd be ae 55 82 be da aa 8e be 8e 07 81 be
       -0.43353736 -0.25455993 -0.27864724 -0.25201076
000310 49 17 b5 3c db 7f 09 bf 5f 86 5f 3e 5a d9 34 bc
       0.02210583 -0.53710717 0.21828602 -0.011038149
000320 de 5d 2e 3a 69 71 1f bf e2 ba 03 bb 7b 39 50 3b
       0.00066515605 -0.62282425 -0.0020100405 0.0031772542
000330 7d 1b d5 3d dd a9 ae be 81 9f 87 3d 22 b8 6d be
       0.104056336 -0.3411397 0.0662222 -0.23214772
000340 20 4d a2 3e 30 eb e4 be 72 eb 5f 3e 35 c2 38 3e
       0.31699467 -0.44710684 0.21867159 0.18042834
000350 99 63 a9 3d b1 7a dc be 44 4c 91 be 83 95 50 3d
       0.0827095 -0.43062356 -0.283785 0.050923835
000360 5d fd 72 bd 9d 1b 93 bd 48 52 e1 3e 2f 5b f0 be
       -0.059323657 -0.07183001 0.44008088 -0.46944568
000370 de 8c 2c 3d 7d ea 82 be e5 bb 03 3f 1a 71 5f be
       0.04212653 -0.25569525 0.5145858 -0.21820489
000380 e5 6c bc be d5 33 f6 3e af e0 53 bd 40 0e 34 bc
       -0.3680183 0.4808642 -0.051727947 -0.010989726
000390 b9 3a 6c be cf d5 99 3e 68 7c 47 be 9a 79 c9 3e
       -0.23069276 0.30045936 -0.19481051 0.39350587
0003a0 c9 fc 3a bc d6 81 88 3e 82 bb d9 3d d6 32 fa bd
       -0.011412808 0.26661557 0.106314674 -0.122167274
0003b0 a1 dd a0 be a8 e6 41 3e cc 5e c1 3e 6d 2c 88 be
       -0.3141909 0.18935645 0.37767637 -0.26596394
0003c0 80 c0 1b 3c 60 d6 e9 3d 48 17 c7 bd 5c 38 3d 3e
       0.009506345 0.11417842 -0.097212374 0.1847853
0003d0 f0 59 77 3e ae 77 44 3e 14 c4 9f be 88 74 c3 be
       0.24155402 0.19186279 -0.31204283 -0.38174844
0003e0 75 aa 3e 3d 65 d3 72 be 1d 0d 69 3e ee ff a4 3e
       0.04654928 -0.23713453 0.22758909 0.3222651
0003f0 68 39 88 be db 08 de be f7 02 10 3f 10 8c 8e be
       -0.26606297 -0.4336613 0.56254524 -0.27841234

bias f4 [64]
000000 9a 67 99 3e 98 ca 55 3e 65 bd ad 3d 8e 1f ff be
       0.29961854 0.20878065 0.0848339 -0.49828762
000010 37 c3 be 3c 53 0b a6 3e 7f c8 3d bb 10 77 b0 3e
       0.023286445 0.32430515 -0.0028958616 0.34465837
000020 a2 3b 86 be 58 8d 99 bd 00 b0 00 be 44 d2 b9 3e
       -0.2621737 -0.07497662 -0.12567139 0.36293232
000030 85 b8 d2 be a8 07 b6 be 12 65 61 3e 15 81 97 3e
       -0.41156402 -0.35552716 0.22011212 0.2959067
000040 68 e8 a0 3e 74 3d 41 bd 56 b6 78 be ce fb c9 3e
       0.31427312 -0.047177747 -0.24288306 0.39449924
000050 9d 94 4e 3e dd 2c 12 be 52 92 59 3d 5b e3 9e 3d
       0.20173879 -0.14274926 0.053118058 0.07758208
000060 d3 d3 41 3d a2 8e 6d 3e fb 0e ce be 85 67 c5 3e
       0.047321152 0.23198941 -0.40245804 0.38555542
000070 71 10 ab bd f4 d1 ce 3c 1a 9e 7f 3d e8 7e ff be
       -0.08352745 0.025246598 0.062406637 -0.4990151
000080 26 ed 48 be 00 65 f9 3c 61 55 a9 3e 82 44 b0 be
       -0.19621715 0.030443668 0.3307295 -0.34427267
000090 61 93 57 bc 15 67 a8 3e ca eb 37 3e 10 39 60 3e
       -0.013157696 0.32891145 0.1796104 0.21896768
0000a0 7b 15 47 be 11 0a 01 be 20 a4 49 be 6c 87 6a be
       -0.19441788 -0.12601496 -0.19691515 -0.22903222
0000b0 22 63 0c 3e ce b3 af be 2a f1 a7 3e 8d a5 9d be
       0.13709691 -0.34316868 0.3280118 -0.30790368
0000c0 c4 35 2f be 07 09 e9 3c 3f a2 69 3e 38 d0 88 3e
       -0.17110354 0.028446687 0.22815798 0.26721358
0000d0 22 e8 35 bd 66 f1 ad 3e 68 c7 be 3e 28 a3 28 be
       -0.044410832 0.33973235 0.3726151 -0.16468489
0000e0 b6 88 9f 3e 56 89 38 bc fe e3 03 be 37 23 b2 3e
       0.3115899 -0.011263212 -0.12879941 0.34792492
0000f0 98 13 f3 be 43 b9 fd 3d 1e 88 0b be c1 2b 83 be
       -0.47475886 0.123888515 -0.13626143 -0.2561932

weight f4 [64, 64]
000000 e7 d3 5e bd 1f 1f 91 bd 59 f6 97 bc 4c 48 ea bd
       -0.054401305 -0.07086014 -0.018550085 -0.11439571
000010 0e 0a 7a bc be c8 76 bd f2 39 bb 3d 23 76 66 bd
       -0.015261186 -0.060250036 0.091419116 -0.056265008
000020 a0 ba b4 bb 6e 76 19 3e a0 fb a9 3c fe 8e 1f be
       -0.0055154115 0.14986584 0.020749867 -0.15581891
000030 9b b6 21 be 66 c8 aa 3d f3 c8 0d be 14 70 3c 3d
       -0.15792315 0.08339004 -0.13846187 0.046005324
000040 10 3e 14 3e 4a 0f 2f be 76 10 93 bd 40 ac 84 3d
       0.144768 -0.17095676 -0.07180874 0.064781666
000050 da 03 db bc 97 f3 9c bd a2 83 f7 3d c8 13 c6 bd
       -0.026735235 -0.076636486 0.12085654 -0.09671742
000060 1f 35 f1 bd 3f 93 9a 3d 3b 0f 6a be 29 4c 19 3d
       -0.1177771 0.07547616 -0.22857372 0.037426148
000070 cb e7 88 bd 7e ab cc bd ff c9 e0 bd 8e 88 f0 bd
       -0.06684836 -0.09993647 -0.10976028 -0.11744796
000080 64 65 32 be f5 e9 90 bd b3 d9 ea bd f8 0b f1 bc
       -0.1742149 -0.07075874 -0.11467304 -0.029424652
000090 cc a5 d4 3d c1 bd 63 be 56 01 42 3d b7 29 b4 3d
       0.10383186 -0.22240354 0.047364555 0.08797019
0000a0 32 7a 97 3d d7 95 8a bb 94 9a 00 3d bf 7e 0e be
       0.07396354 -0.004229288 0.031397417 -0.13915537
0000b0 c7 b8 a4 bd c0 a6 cc bd 29 53 53 3d ea 79 26 3d
       -0.08043056 -0.099927425 0.05159298 0.04064361
0000c0 60 8b 9f 3b e5 da 64 bd 5d 1c 8f be f3 2e e7 bc
       0.0048689097 -0.055872817 -0.27951327 -0.02822063
0000d0 c9 8f f3 b5 0d 2e ef bd 79 6f c0 3d cc 5a e2 bd
       -1.8146758e-06 -0.11678705 0.09396262 -0.110524744
0000e0 80 e7 32 bd 96 5e f2 3d 77 97 66 3d 33 6f 85 3c
       -0.043677807 0.11834447 0.056296792 0.016288375
0000f0 a8 33 a0 3c ee 3a 57 bd f9 be 15 be 09 de 2b bd
       0.019555882 -0.052546434 -0.14623632 -0.041959796
000100 1b 2c 43 bd 16 2a 6e 3d a7 37 27 be 08 75 1b bd
       -0.047649484 0.058145605 -0.16329823 -0.037953407
000110 84 a9 04 be 7d 8b 2b bd a9 2c b4 bd 9d f1 f3 bb
       -0.1295529 -0.041881073 -0.08797581 -0.007444574
000120 0c 5f 51 bd df b0 cb bd 56 ad ee 3d 73 fa 14 3e
       -0.051116034 -0.09945845 0.11654155 0.14548664
000130 30 40 30 3e ed 6d 18 3e ad fe 09 be b7 4c dc bd
       0.17211986 0.14885683 -0.13476057 -0.1075682
000140 0a 18 88 bd 5f 49 c3 bd 97 24 da bd a2 24 a2 3d
       -0.0664521 -0.09535479 -0.1065151 0.079171434
000150 1f 65 6d bb 46 b6 8f 3c a7 cc 70 bd 02 31 2f be
       -0.0036223603 0.01754297 -0.05878892 -0.17108539
000160 23 5a d0 bc ba 72 e1 3c 90 97 ef 3b eb 48 63 bd
       -0.025433606 0.027520526 0.007311769 -0.055489462
000170 6d c9 b4 3c 8c 22 1f be c3 09 f9 3d 32 63 ed 3d
       0.022068704 -0.15540522 0.12160065 0.11591186
000180 a8 64 c5 3d 4b 91 b3 3d c3 39 1a 3d bc 8d 08 3d
       0.09638339 0.08767947 0.037652742 0.033338293
000190 82 c8 0d bd 29 64 b4 bd 07 17 73 bd c7 9c c7 bd
       -0.034615047 -0.088081665 -0.059348132 -0.097467
0001a0 d6 b2 3c 3e 5d 76 da bc 96 b4 9c 3d eb b6 1e 3e
       0.18427595 -0.026667768 0.076516315 0.15499465
0001b0 36 05 d8 3d 48 64 90 bc 0f 69 d2 3c 17 90 ff bc
       0.10547869 -0.017625943 0.025684861 -0.031196637
0001c0 18 1a 49 bd cf 71 ab bc 94 bf 05 3e 6e 75 d2 bd
       -0.04909715 -0.020928292 0.13061363 -0.10276304
0001d0 af 7d 06 3e 03 1b 6b 3d 3a c9 89 bd ed 0e 6e 3d
       0.13133882 0.057398807 -0.06727834 0.058119703
0001e0 da 32 c5 3c 62 fd 09 3d 63 dd a3 3c 07 c3 8a 3a
       0.0240721 0.03368891 0.020003026 0.0010586687
0001f0 8c b8 5a bd ec 2b 28 be 07 61 74 bd f6 fc 68 3d
       -0.053398654 -0.16423005 -0.059662845 0.056881867
000200 5d 7f 16 3e 0d 1b 3e bd fb a1 f4 3d 7e f9 92 bd
       0.14697023 -0.046412516 0.11944958 -0.07176493
000210 31 c3 7a 3d 55 8a e1 ba 67 54 2f 3d ef a0 d6 bd
       0.061221305 -0.0017207364 0.0428051 -0.104799144
000220 0a 80 a5 bd 12 d5 7f 3d 3c 16 79 3d c6 72 0f be
       -0.08081062 0.06245906 0.06081222 -0.14008626
000230 c3 66 55 be f0 99 d4 3d 9c 1f 31 3d 6b 4b fe bd
       -0.20839982 0.10380924 0.043243036 -0.124167286
000240 34 2c e7 3c 6e 06 9e bd 82 bf e8 3d b4 a8 bd bd
       0.02821932 -0.0771607 0.11364652 -0.09260693
000250 06 23 f5 bb 6b 60 2d bd 71 7c 48 bd cd 82 d3 3d
       -0.0074809818 -0.04232828 -0.0489468 0.10327683
000260 04 95 a4 3d 22 05 e5 bd d5 08 52 be 03 48 38 bd
       0.08036235 -0.1118262 -0.20511182 -0.04499055
000270 d4 4a 84 bd 03 69 91 3c 45 a0 68 ba 00 d8 10 bd
       -0.06459585 0.017750269 -0.00088739797 -0.035362244
000280 e0 dc 9b bd fc 32 91 bc 75 80 81 be 10 fb 66 3c
       -0.07610488 -0.017724507 -0.25293317 0.014097944
000290 8d 88 95 bd be ca 45 be 9d dc 8d bc b3 d1 0f bd
       -0.073014356 -0.19315621 -0.01731711 -0.035112094
0002a0 f7 ba 09 3d bf 17 3a be 60 45 ea 3b 60 9a 01 be
       0.03362557 -0.18173121 0.0071493834 -0.12656546
0002b0 b1 03 62 3d 0c 8d b3 bd 7f 25 06 3d 58 a9 68 bd
       0.0551793 -0.08767137 0.032750603 -0.056802124
0002c0 56 6e c1 bd 39 52 c1 bd 9a a2 b4 be 8d 82 63 3d
       -0.09444873 -0.09439511 -0.35280305 0.055544425
0002d0 20 e8 a1 3d 12 55 f1 bd 37 e4 10 3d c6 fb 49 be
       0.079056025 -0.11783804 0.035373893 -0.1972495
0002e0 a5 e9 14 3d 19 a3 13 bd c8 38 7f 3d 80 0b 64 3d
       0.036355633 -0.036044214 0.06231001 0.05567503
0002f0 06 cc de 3d a9 8d 50 3d de 3e d3 bb 20 a0 bb bc
       0.10878758 0.050916348 -0.0064467033 -0.022903502
000300 fb a2 25 bc ab f8 e9 bc 85 83 ec bc 9a a9 cb 3d
       -0.010109658 -0.028560957 -0.028871307 0.09944458
000310 1e 57 af 3b a6 bd 07 3d 38 24 0f bc 9c 24 9b 3c
       0.0053509613 0.033139847 -0.008736663 0.018938355
000320 1c c1 b7 3d 64 b4 c7 3d aa 9c 91 bd d7 bd 88 3c
       0.089723796 0.09751204 -0.071099594 0.016692085
000330 08 6d 71 bd 15 98 f2 bd 6e a4 4b bd b1 54 0b 3e
       -0.05894187 -0.118454136 -0.04971736 0.13606526
000340 66 b8 b8 bd bc a5 0b 3e 59 26 9b 3c bf 7f d1 bc
       -0.09019546 0.13637441 0.018939184 -0.02557361
000350 f8 8e 6c bd 0f 64 19 bd 3a 25 14 3d 70 b6 c6 3c
       -0.057753533 -0.03744894 0.036168315 0.024256915
000360 1c d5 de bb 98 e1 81 3d 6d e7 a4 3c 2b 60 4f 3e
       -0.006800307 0.06341857 0.020129884 0.20251529
000370 3a a9 87 bc 07 2d 91 3d 2f 42 6a 3b 98 70 a2 bd
       -0.016560186 0.070886664 0.0035745015 -0.07931632
000380 7b 6f f4 3d ba 15 10 bd ca ad a3 3c bc 4f 25 3d
       0.11935326 -0.03517697 0.01998033 0.040359244
000390 10 ad 74 3b eb dc 22 3e 95 1e 37 bd 40 30 ac bb
       0.0037334599 0.15904586 -0.0447069 -0.0052547753
0003a0 6d 38 01 be 5e a0 29 3e 00 0d 55 3b 55 16 bd 3c
       -0.12619181 0.16565081 0.003250897 0.023081938
0003b0 79 82 c4 bd 7a 62 ab bd ee f8 14 bd a5 25 88 3d
       -0.09595198 -0.08368392 -0.03637021 0.06647805
0003c0 68 20 85 3d b7 8a 00 3e 71 69 85 3d f1 04 9b 3a
       0.065003216 0.12552916 0.06514252 0.0011827034
0003d0 b8 d4 ee 3d 73 c2 36 3e 7e 47 c7 3d 98 f9 15 3d
       0.11661667 0.17847614 0.09730433 0.036614984
0003e0 eb bf 15 bd 50 36 42 be c9 ca 74 3b 9a b0 79 3c
       -0.03655998 -0.18966031 0.0037352315 0.015239859
0003f0 30 40 dd 3d 74 ed a2 3d 7c ed 89 bc 55 80 80 3c
       0.108032584 0.07955447 -0.016836874 0.015686193

bias f4 [64]
000000 a7 5f 6e b9 47 0e cf bd 49 47 2b 3d 79 fa 2f bd
       -0.00022733082 -0.10110145 0.04181603 -0.04296348
000010 b0 00 06 bc e5 6d 6e b9 a2 04 46 bc 01 db 1b 3e
       -0.008178875 -0.00022738388 -0.0120860655 0.15220262
000020 15 52 85 bd 36 80 ca bc c9 63 95 bd b7 7d 79 bc
       -0.065097965 -0.024719339 -0.07294423 -0.015227727
000030 fe 10 ab bc 86 fe 82 bc d6 f7 b7 3c 7b a0 3f 3e
       -0.020882126 -0.015990507 0.022457045 0.18713562
000040 63 36 fe 3d 94 11 00 3e a0 70 8a 3d b0 32 c2 3d
       0.12412717 0.12506706 0.06759763 0.09482324
000050 7e 8e 30 3c 71 89 bc 3c 62 a7 04 3e d9 33 f4 bc
       0.01077616 0.023014756 0.12954476 -0.02980988
000060 b5 17 1d bd ec 14 69 3d f7 5c aa bd b6 68 c2 3d
       -0.038352687 0.05690472 -0.08318513 0.09492628
000070 4c 38 d8 3d 5c ab 12 3e e8 4d f3 bc 97 ef fb 3c
       0.10557613 0.14323181 -0.029700235 0.030753894
000080 52 28 e5 3d 5e e6 a0 bd c5 15 05 3d ce dc a9 3d
       0.11189331 -0.07856439 0.032491464 0.08294068
000090 b6 2f c6 3c 75 ec c8 bd 73 49 12 3e c4 0e 32 3e
       0.024192672 -0.098107256 0.14285831 0.17388445
0000a0 c6 e2 2f 3e 50 49 09 3b b6 79 28 3c 2a 4f 07 bc
       0.17176351 0.0020948239 0.010282924 -0.00825862
0000b0 10 e6 0b 3e 20 60 0d be fe e3 08 3e e9 21 0c bb
       0.1366198 -0.138062 0.13368222 -0.0021382517
0000c0 08 c0 07 3e 76 a9 12 3d a2 26 05 be 4f 1f f2 3d
       0.13256848 0.03580614 -0.13003018 0.11822378
0000d0 c5 a5 6b 3d 33 98 db bd 51 2c ee bc 4c 7d 5e bd
       0.057531137 -0.10722389 -0.029073866 -0.05431871
0000e0 3f 03 00 3e 3b fb 95 3d 46 24 eb 3c cb d0 a6 3c
       0.12501238 0.07323309 0.02870382 0.020363232
0000f0 71 94 0a 3e 03 b1 00 3e 58 61 21 3e 35 f6 ba bc
       0.13533188 0.12567525 0.1575979 -0.022822479

weight f4 [1, 64]
000000 6c 28 2d 3e d9 2c f3 bd 22 c2 2c 3e 9f a8 9d bd
       0.16909951 -0.118737884 0.16870931 -0.076981775
000010 57 5d 82 bd 8d 04 14 bd b4 68 10 3e 18 2c c1 3d
       -0.063654594 -0.036137152 0.14102441 0.09432238
000020 86 cc df 3c e6 bd 39 bd 10 8a 0c bd 0c 63 bb 3d
       0.027319204 -0.045347117 -0.034311354 0.09149751
000030 a3 8d 04 3e 42 e6 f0 3d 1e 55 62 bd 17 6a bc 3d
       0.12944655 0.11762668 -0.055256955 0.091999225
000040 c3 b5 1e 3d c5 dc e2 3d 71 12 00 3e 0e b4 a8 bd
       0.03874756 0.11077265 0.12507035 -0.08237468
000050 54 64 ea bd 7b e6 3e bd a8 20 63 3d 3a a7 71 bd
       -0.11444917 -0.046606522 0.055451065 -0.05899737
000060 f4 12 89 bd 08 da 2c bc 2d 4c b6 bd 8d a9 88 3d
       -0.06693068 -0.01055003 -0.08901248 0.06672964
000070 b2 ea ea 3d ac 12 e8 3d 49 fb 53 bd 4b 8d 3b 3e
       0.11470546 0.113316864 -0.051753316 0.18315618
000080 b8 21 33 3e d6 b7 00 be c1 38 f5 3d 89 f5 09 3e
       0.17493331 -0.12570128 0.119737156 0.1347257
000090 b2 a8 98 bd 05 6a 24 bd 5e e5 88 3d 80 8c bf 3d
       -0.07454051 -0.04014017 0.06684373 0.0935297
0000a0 c8 e3 93 3d b5 95 99 3d ff 13 cf 3d 12 23 0c 3e
       0.0722118 0.074992575 0.10111236 0.13685253
0000b0 f4 fd ad 3d 56 a2 a7 bd ae 97 b8 3d 0e cc ad bc
       0.08495703 -0.0818526 0.090133056 -0.021215465
0000c0 38 61 8f 3d 4e 57 dc 3d 88 88 4d bd 15 e6 23 3d
       0.07000965 0.107588395 -0.050179034 0.040014345
0000d0 f1 c2 f0 3d ef 63 33 be 8b c0 f3 3d 14 0b c8 3d
       0.11755932 -0.1751859 0.11901959 0.09767738
0000e0 05 47 0b 3e b8 22 71 3d 9a 66 4a bd 26 2b 8e bd
       0.1360131 0.058871 -0.049414255 -0.06941824
0000f0 4d 18 b2 3d 88 2a d0 3d 7e 34 46 3e 2b 79 91 bd
       0.08696041 0.10164362 0.19355962 -0.07103189
