models/model_data_t.pth (torch, 22207 bytes, 5 tensors)

weight f4 [64, 4]
00000000: 7234 0c3e da5d 8dbd 64f8 6cbe cf81 0cbf
00000010: d612 d6be 2eef 39bf e141 0c3c 3b89 9b3d
00000020: ac9a 37bf b40b 6abf 61a1 873b 1220 ff3d
00000030: 617d 9dbe 0d62 dfbf 41e3 50bb fef9 a53d
00000040: 248b 0ebf 664c 983f d550 243d d0dd c3be
00000050: 27a1 33bd e981 9cbd 4fc4 1dbd 50c3 01be
00000060: da8d c93e dd65 db3f 3daa 5cbb 9231 663d
00000070: bdad 993d 65b5 85bf b556 a8b9 f7ab c7bb
00000080: ed2d 40be 0449 ad3f e0b4 11b9 1788 cdbc
00000090: 5c45 52be d19b 6f3f a12e 223a 91a8 8a3c
000000a0: 9699 153e c105 69bf 033c f9bd e4ed 84be
000000b0: e68a 51bc 00b9 443e d9f6 873d f6ae 0fbf
000000c0: 7b0c e1be 5b0a 80bf 18c7 8c3d 7aac dd3a
000000d0: db91 c93e 3c4f 763f f47f 913d 5fd6 73be
000000e0: 85e9 03be 2cc6 aa3f 7f6d 2cbb fb40 29bc
000000f0: dcb6 f5bc e86d a7bf ed6a 8dbc 7bd6 a23d
00000100: 8672 273e 365f a13f 236e faba 7421 3bbb
00000110: 36e8 91be 0d05 223f a86e bc3d 9429 38be
00000120: 19ce d6be e6d1 07bf dedc 363e 1334 eebe
00000130: 69fa c6be 116a 83be 4007 853d fb4a b1be
00000140: 6663 1fbe 551d e6bd 5d44 453e 26b2 c0be
00000150: 888b 9f3e 9e7f 5abe b339 ce3d d1d7 f63d
00000160: 6da2 09bf 3de6 1fbe f355 f3bd 279f 19bd
00000170: cb86 81be 1675 c4bf 0b70 4d3c 4492 913d
00000180: 115d 30bf 768c 153e 43e1 36be 3e6d 22bf
00000190: 8176 8b3e c1ee dfbe a85c 253d 1339 433d
000001a0: a615 cbbe 0c27 1bbf f3ea 5b3e ef8e 98be
000001b0: 482f a73d 9739 623f bfc7 42ba c6a4 e3be
000001c0: d694 17bf 5b24 afbf 7266 a43c eac0 b53d
000001d0: 0579 e7be d3cd c73e 45f0 e83c 15d2 ac3c
000001e0: a76c 83bd 2027 b4bf 986e 493a 6330 3e3d
000001f0: ad13 a1be bcab 843f e75a f1b9 0b02 d1be
00000200: 1231 113e a324 20bf 6471 c0bc 0229 d63c
00000210: cfbf 16bf e945 f5be 1899 03bd ca49 b53d
00000220: 0efa 3d3e a487 a3bf b3b1 c9bc 69b5 373d
00000230: 5a0f f73e 1c7e 70be 5474 0dbc 4212 7b3d
00000240: 5a3c ecbe 6403 debe b776 0e3d 1a9d e53d
00000250: eba0 02be 6904 cd3f c9f4 22ba 3c4d 10bd
00000260: c626 3bbf 4a8b d1bf 5858 3a3c 12bb 033e
00000270: 1bfd 26be 9d2c cd3f 3997 273b 2c1d 15bd
00000280: f8f6 3cbe 05e5 ba3f 5ca2 913a 0bcf 9fbb
00000290: d85d e5be 15f0 03be 2504 56bd 1afa a4be
000002a0: 493f 343e d10b 9b3b 79d2 52be 8421 6cbe
000002b0: 2669 7cbd 1e86 8dbf 0bc3 9c3a aa34 4ebc
000002c0: 3241 19be c197 22bf 9b44 b4bd d711 cc3d
000002d0: c8cf d33d 7b8c 633e 2988 34be d5b2 a5be
000002e0: 8c05 16bf 1f2e 013f 90b0 1f3e 7f1e 46be
000002f0: e782 243e c906 453e 548d 883b 8a3d febe
00000300: 6499 cb3e 84c9 bdbf 8913 f93c 5652 07bd
00000310: 1c74 f7be a7dd 463f 1c37 afbd 03d3 39be
00000320: c9a4 ad3d e64a 1bbe 3072 85bd 3778 15bf
00000330: 5661 30be c9a3 9dbf c018 5d3d 4885 153e
00000340: 9a22 833e 3c94 9cbf 2785 81bb f4eb 1f3d
00000350: 56b5 21bf 3cf5 b5bf 67e2 abbc ea4c db3d
00000360: 0816 26be daf3 de3e 0e07 1cbe 1ffb 85bd
00000370: 2206 133f 9679 a33e fc88 533d c406 aabe
00000380: b3a8 e9be eb9b d43e cfdc 063d 4a4a e13c
00000390: 1044 603d 3050 82bf 9bd0 a2bd 2315 c8be
000003a0: e0e5 4abf e01b 28bf a580 063e 3979 4dbd
000003b0: 145a a2be 8644 a1bf 5ad8 26be 7116 ffbe
000003c0: 26bb 99bd 2a9f 4bbe 0e0d 893d 8bce e2be
000003d0: cf3f 6fbd f37d acbf 5ece 5dbc 868f 973d
000003e0: ac41 853d c8eb d6bf a72d e2bb 370a 3e3d
000003f0: 23a8 70be 9578 ffbe 13c3 82bd 30e4 9b3d
0.13691881 -0.069026664 -0.23141629 -0.5488557 -0.41811246 -0.72630584 0.008560629 0.07594534
-0.71720386 -0.9142411 0.004139111 0.12457289 -0.3075972 -1.7451798 -0.0031873735 0.08104323
-0.5568106 1.1898315 0.04011615 -0.38255167 -0.04385486 -0.07641966 -0.038517293 -0.12672162
0.39366037 1.7140461 -0.0033670806 0.056199618 0.07503841 -1.0445982 -0.0003210806 -0.006093498
-0.1876752 1.3537908 -0.00013895659 -0.025089307 -0.20534271 0.9359713 0.0006186758 0.016926082
0.1460937 -0.91024405 -0.121696495 -0.25962746 -0.012789464 0.19211197 0.06638879 -0.56126344
-0.43954834 -1.000316 0.068739116 0.0016912364 0.3936909 0.9621465 0.07104483 -0.23812245
-0.1288205 1.3341727 -0.0026310382 -0.010330434 -0.02999442 -1.3080416 -0.0172629 0.07951065
0.16352281 1.2607181 -0.001910631 -0.0028553875 -0.28497475 0.63288957 0.092007935 -0.17984611
-0.41954115 -0.53054655 0.17857692 -0.46524104 -0.38862923 -0.2566686 0.064955235 -0.34627518
-0.15565261 -0.112360634 0.1926436 -0.37635916 0.3116114 -0.21337745 0.10069599 0.120528825
-0.5376347 -0.15615173 -0.11881628 -0.037505295 -0.2529815 -1.5348232 0.01253892 0.07107976
-0.6889201 0.14604363 -0.17859368 -0.6344794 0.2723885 -0.43736842 0.040371567 0.047661852
-0.39664954 -0.60606456 0.21476345 -0.2979655 0.08163315 0.88369125 -0.0007430277 -0.4446165
-0.5921148 -1.368297 0.020068381 0.08874686 -0.45209518 0.3902422 0.028434882 0.021096269
-0.06417208 -1.407444 0.0007684021 0.046432864 -0.31460324 1.0364909 -0.0004603483 -0.4082187
0.14178875 -0.62555903 -0.023491569 0.0261426 -0.58886427 -0.479049 -0.032128423 0.08851965
0.1855242 -1.2775769 -0.024620866 0.04485074 0.482539 -0.23485607 -0.008633692 0.06129671
-0.46139795 -0.43361962 0.034781184 0.11211605 -0.12756698 1.6016971 -0.00062162854 -0.035229906
-0.7310604 -1.6370633 0.011373602 0.1286433 -0.1630749 1.602924 0.0025572313 -0.036404774
-0.18453586 1.4601141 0.0011111009 -0.0048769764 -0.4479816 -0.12884553 -0.052250046 -0.32222062
0.17602266 0.0047316332 -0.20588101 -0.2305966 -0.061623715 -1.1056554 0.0011959983 -0.012585798
-0.14966276 -0.6351281 -0.08802148 0.0996434 0.103423655 0.22221558 -0.17630066 -0.32363
-0.58602214 0.50461 0.15594697 -0.19347571 0.1606556 0.1924087 0.0041672383 -0.49656326
0.39765465 -1.4827123 0.030404823 -0.033037506 -0.48330772 0.77681965 -0.08555433 -0.18146901
0.08478696 -0.1516529 -0.0651592 -0.5838656 -0.1722463 -1.2315608 0.05397868 0.14601624
0.25612336 -1.2232738 -0.0039526406 0.03904338 -0.6316732 -1.4215465 -0.02098198 0.107080296
-0.16219342 0.4354542 -0.15237066 -0.06542038 0.5743123 0.319287 0.05164431 -0.33208287
-0.4563652 0.41525206 0.032925423 0.027501244 0.05475241 -1.0180721 -0.079499446 -0.39078626
-0.7925701 -0.65667534 0.13135011 -0.050164435 -0.3170935 -1.2599037 -0.16293469 -0.4982181
-0.07506399 -0.19884935 0.06691943 -0.44298205 -0.058410462 -1.3475937 -0.013537971 0.07400422
0.065066665 -1.6790705 -0.006902415 0.04639646 -0.23501639 -0.49896684 -0.06384864 0.07611883

bias f4 [64]
00000000: ba1c 9d3e 7b34 2abf e24f 36bf 1241 17bf
00000010: b75a b63e 9dbf 183f c268 37be 65e4 8b3f
00000020: 44a3 15bf 6dd2 f3be 78ea 373f afe8 1e3f
00000030: a839 69bd 2a8c f5be 1f30 aebe 84ec 693e
00000040: 5104 76bf 084b 5fbe 7f67 953e f80a 383d
00000050: 5cca bdbc 8cda d73c 36dd 21be 412a a13e
00000060: 9129 c5be 5ec6 193e 1bd8 94bc de01 94bf
00000070: 47b7 cb3c fed7 08bf db94 393e 34a3 8fbe
00000080: 9c02 893d b48b 84be f1d3 723e 3bd7 f53d
00000090: 295f 29bf 2299 ddbe 02d4 4abf 5728 1cbf
000000a0: 031a 64be 1b03 9e3e 569e 42bd 03e3 ba3f
000000b0: b48f 9bbd 4958 02bf 2960 27bf 6cbb bf3e
000000c0: be28 ab3e 68bd b4ba aeca a83d e9c9 83bf
000000d0: fa9c 11bf 1726 963b b3a9 77be 6cc8 253d
000000e0: df0a 67bf c05d 603e 1dec 6bbe f5eb 233e
000000f0: 4165 d8be f98f 56bf 4f9a 193e e002 cf3d
0.3068598 -0.6648633 -0.7121564 -0.59083664 0.35616085 0.5966738 -0.17911056 1.0929075
-0.5845225 -0.4762148 0.71842146 0.62073797 -0.05693975 -0.479585 -0.34021088 0.2284413
-0.96100336 -0.21805966 0.29180524 0.044932336 -0.023167782 0.026349328 -0.15807042 0.3147755
-0.38508275 0.15017077 -0.018169453 -1.156307 0.024867667 -0.5345458 0.1812319 -0.28054202
0.06689951 -0.25887835 0.23713662 0.120039426 -0.6616083 -0.43280894 -0.7922975 -0.60999054
-0.22275548 0.30861744 -0.047514282 1.4600528 -0.075957686 -0.5091596 -0.65381104 0.3744768
0.3342952 -0.0013789358 0.08241783 -1.0295993 -0.5688015 0.0045821774 -0.24185829 0.04047434
-0.9025096 0.21910763 -0.23039289 0.16007979 -0.4226475 -0.83813435 0.1500027 0.1010797

weight f4 [64, 64]
00000000: 7bc4 503d f775 973c 3f40 5cbc 95dc 1a3d
00000010: 5178 7f3d 5c1f c13d af58 11bd dad8 f43e
00000020: 6e35 83be feac 4dbd e930 18be 5b45 713d
00000030: 8b93 bf3d 2470 4bbc d58b d8be c623 923d
00000040: 23b9 38be 5d58 a33d 0708 b9bd 3766 6dbb
00000050: f201 1f3d bdc6 d73b 52db 98bc 1148 763d
00000060: fc80 593c 5508 febb e34e 09bd 7620 e1be
00000070: 629d 293c 2c51 9ebd 9569 d93d 27d0 d9be
00000080: d654 07bd e8dd 3cbd 4ca1 8cbd 7917 f83c
00000090: e840 44bc 55a5 57be e77a e9bc f7a6 51be
000000a0: 0d68 90be 329f 60bd e53c 143d a055 db3e
000000b0: d51b 063c 9ea2 af3c 6618 dbbc 3f7b a23c
000000c0: d837 fa3d 02cc f53c e4dc 123d dfc8 0bbd
000000d0: 744b c3bd 3e65 1e3d a97e e4bc 732d 043d
000000e0: beee 46bd fa21 edbc 14a7 113c 3b82 403b
000000f0: 6a27 30bd 8f54 31bd 4917 013e a083 0b3d
00000100: f976 67bb 6884 c33d e7ab cd3d 3ba3 0d3d
00000110: 1fb7 a3bd b19b 2fbe c581 293c 8bd4 b43d
00000120: f3c2 84be ae6d ac3d e196 6f3c 8c97 693d
00000130: 91a1 d33d 7ff5 53bd b873 87bd 42f0 a7bd
00000140: 6cd5 bf3c 18e3 58bd b72f c23d c2b5 c8bd
00000150: 5633 c63d 28ba 8dbc 66b5 ecbd 8f33 d3bd
00000160: 0f3f ff3c 1aab 813d f9b1 13be f7bf a2be
00000170: e690 0bbc 4c39 60bb 0d44 273d b779 bbbd
00000180: eb3d 043d 5711 4e3d 8057 fa3c 01ee bb3d
00000190: 838e 543d 2fe4 90be 21fa 49bd 8bb9 acbe
000001a0: 29c3 ea3c 1c2f 683d 739a 9ebd 98a8 ed3e
000001b0: f705 593d 7ea6 43bd 664e 1fbd 1c21 84bd
000001c0: 9616 3dbd 696d ae3b f328 953d 41a6 06bd
000001d0: cbe3 3b3d 1a50 cdbd af81 173c d603 9abd
000001e0: 4d04 cf3c d5e9 5abd fec6 06bd b21e 9b3d
000001f0: 6a9f 0dbe 35ed 283e 3d84 cd3d 9da1 8dbd
00000200: ddc6 edbc df99 933b aa6e 6bbd 2ae1 65be
00000210: 16f6 953d 2f77 a7bd 5673 c83d fb03 07bf
00000220: 6022 8b3e 6f13 283d be06 ee3c f1a9 6ebd
00000230: 6851 ffbc 1461 1c3d 4a25 ae3d 676f eebc
00000240: efae ff3d 9b62 cd3d d45a 253d 3503 063c
00000250: 5b7d a5bd 47b5 563c d58e 9fbd ef99 74bd
00000260: 403d 4a3d a1a4 0cbd 9d86 d7bc 3061 b43e
00000270: ff5b 0c3d 0456 a1bd 5138 d3bd 0cb8 013e
00000280: a890 b93b 67ac eebd 4555 85bd 57c4 18bd
00000290: 4cda 0c3d 854e 723d ef59 abbc 6ead ef3d
000002a0: b3ab a13d d345 58bd a699 633d d24e 2fbf
000002b0: ba3c aa3b fcd4 df3c ad08 853c 3ddc fa3c
000002c0: 6173 25be ab8e 9a3d 79ca c4bd e139 703d
000002d0: 7407 52be de4d 80bd 52c5 153d f31e dabc
000002e0: 2d6b d23d c3ce d6bd 0451 25bd affa 5c3c
000002f0: b943 f93b a740 afbd 97d6 6abe 33ed 77bc
00000300: ad9b 7d3a 3d8d d7bc f478 4b3c d977 5cbd
00000310: 6539 003d f846 ff3c b841 ffbb 130f 8a3e
00000320: dcab 77be ed93 d4bd a93f 393d 422c 91bd
00000330: edc1 3f3d 111e b4bd c41e 4dbe cfdd 943d
00000340: 71d3 37be ebe4 f33c 65e6 6fbd 3a98 033d
00000350: bfb2 cc3d b092 4bbc d185 83bc aba9 f73d
00000360: f487 eabc 73e3 363d ddc7 393d 23a4 b1be
00000370: 5e52 863b c450 52bd 04b8 f23d a901 e4bd
00000380: b90f 8e3c 38cf 36bb 11c2 a03c aec8 703c
00000390: 1508 713c 29b5 0dbe adb7 b4bd 51be 43be
000003a0: e625 53be 44f9 08be 117a ac3a 1b58 da3e
000003b0: f8be efbb a31b a53d a880 7dbd 4dbb 993c
000003c0: a9cd 9c3b e7f4 31bd 2ea9 203b a74c 1cbd
000003d0: 20bd a6bd e00c a3bc fc53 643b 74d7 f8bd
000003e0: 287d 71bd 423c 9bbc f5f9 b43c d177 9fbc
000003f0: 7e33 16bd d58a e03d 8c26 19be c64f a0bc
0.05096863 0.018488867 -0.013443052 0.03780802 0.062370602 0.094298095 -0.035484966 0.47821695
-0.256267 -0.050213806 -0.14862408 0.058904033 0.093543135 -0.012416873 -0.42294183 0.071357295
-0.18039374 0.07975838 -0.09034734 -0.0036224255 0.038820215 0.0065849707 -0.018659268 0.06012732
0.013275381 -0.007752458 -0.033522498 -0.43970078 0.010352464 -0.07730326 0.10615841 -0.4254162
-0.03303989 -0.046110064 -0.068667024 0.03028463 -0.0119783655 -0.21059163 -0.028500987 -0.20473848
-0.28204384 -0.05483932 0.036190886 0.42838764 0.008185347 0.021439847 -0.026745033 0.019834159
0.122176826 0.030004505 0.03585519 -0.034127112 -0.09535876 0.03867077 -0.027892428 0.032269906
-0.048567526 -0.028946865 0.008889932 0.0029374498 -0.04300634 -0.043293532 0.12606539 0.034061074
-0.0035318716 0.09546739 0.100425534 0.034579497 -0.07993912 -0.17149235 0.010345881 0.08829602
-0.25929984 0.08419357 0.014623375 0.057029292 0.10333551 -0.051747795 -0.066138685 -0.082001224
0.023417197 -0.05295095 0.09481757 -0.098002926 0.0967776 -0.01730068 -0.115580365 -0.103125684
0.031157998 0.06331463 -0.1442336 -0.31787083 -0.008518433 -0.003421384 0.040836383 -0.09154075
0.032285612 0.050309505 0.030559301 0.09176255 0.051893722 -0.2829909 -0.049310807 -0.33735308
0.028657513 0.056685552 -0.077443026 0.4641769 0.052984204 -0.0477662 -0.038893126 -0.064516276
-0.046164118 0.0053231013 0.07283201 -0.032873396 0.045871537 -0.10025044 0.009247228 -0.07520263
0.025270605 -0.053445656 -0.032904617 0.07574214 -0.13830343 0.16496737 0.10034988 -0.06915591
-0.02902549 0.004504427 -0.057478584 -0.22449175 0.07322328 -0.08177029 0.097876236 -0.5274045
0.27174664 0.04103416 0.02905595 -0.058267538 -0.031166747 0.03817852 0.08503206 -0.029105855
0.12484538 0.10028573 0.040369824 0.008179476 -0.0808055 0.013104743 -0.07790915 -0.059717115
0.04937482 -0.03433669 -0.026309306 0.35230398 0.03426742 -0.07877734 -0.10313476 0.12667865
0.0056629963 -0.11653977 -0.065104045 -0.03729662 0.03438787 0.059156913 -0.020916907 0.11703001
0.07894077 -0.052800965 0.055566452 -0.68479645 0.0051952275 0.027323239 0.016239488 0.030622596
-0.16157295 0.07546743 -0.09608931 0.058648948 -0.20510656 -0.06264852 0.036565132 -0.026626086
0.102743484 -0.104886554 -0.040360466 0.013487502 0.00760695 -0.08557253 -0.22933422 -0.015132236
0.00096743816 -0.026312465 0.012418974 -0.053825233 0.031304736 0.03116177 -0.0077898167 0.26964626
-0.24186653 -0.10379777 0.045226727 -0.0708852 0.0468158 -0.08794797 -0.20031267 0.07268869
-0.17951752 0.029772243 -0.05856933 0.032127596 0.099950306 -0.01242511 -0.01605502 0.120929085
-0.02862928 0.044650506 0.04535662 -0.3469554 0.0040991744 -0.051346555 0.118515044 -0.11133129
0.017341482 -0.0027894508 0.019623788 0.014696283 0.0147114 -0.13838638 -0.08824096 -0.19115569
-0.20619926 -0.13376337 0.0013158937 0.42645344 -0.0073164664 0.08061912 -0.061890274 0.01876607
0.004785259 -0.043446448 0.0024514901 -0.03815904 -0.081415415 -0.0199036 0.0034840098 -0.121504694
-0.05895725 -0.018949632 0.022091845 -0.019466313 -0.0366702 0.1096398 -0.1495611 -0.019569289

bias f4 [64]
00000000: a5bc f63e 47be 90be 343b 3d3e d0b2 d73e
00000010: 3f79 eb3c ed3c aa3d e5d4 723e f202 b13d
00000020: 125c 783d adc2 553e 848f 8e3e 99b3 9fbd
00000030: e248 4d3f 3773 003e 817f 843e eeb7 a53e
00000040: 9f3f d23e aae0 193f 5050 953e 548b 453e
00000050: 395d 123e d6b1 38be 5c6f 9b3e 691c 473e
00000060: f2d6 4dbe 1388 07bd a980 0c3e eee9 abbc
00000070: c06e 45be f1fc 633d 2b65 433e 63a2 babd
00000080: d11f e7bd c717 403e 1506 0a3c 1e36 e7bd
00000090: bc0e 4c3e fcf8 6d3e 0ab1 443f 4278 fabd
000000a0: fa8b 0b3d 62e2 d73e ad53 3b3d 485e 0c3d
000000b0: 3272 913e 0f8a eebd ed9b 673d e1df 9a3e
000000c0: 6899 90be 05f7 ae3d 16be 183e 6ab1 4dbe
000000d0: b0e3 10be cee2 a33d 022c fe3e 238b 85bc
000000e0: 01ef 7f3c c0d2 c7bc 687a 343e 5e24 e4bd
000000f0: 2af4 393e 4172 d23e 587c 1a3e a1d4 54bc
0.481908 -0.2827017 0.18479615 0.4212861 0.028744338 0.08312402 0.23714025 0.0864314
0.06063468 0.20875044 0.2784387 -0.077979274 0.80189335 0.12543951 0.25878528 0.3236689
0.41064164 0.60108435 0.29162836 0.1929143 0.14293374 -0.18036589 0.30358398 0.19444431
-0.20101526 -0.033088755 0.13720955 -0.02098557 -0.19280529 0.055661146 0.19081561 -0.09113004
-0.112853654 0.1875907 0.008424302 -0.11289619 0.19927496 0.23239511 0.7683264 -0.122299686
0.03406904 0.42164904 0.045734096 0.0342696 0.28407437 -0.11647426 0.056545187 0.3024893
-0.2824204 0.08543209 0.14916262 -0.2008721 -0.14149356 0.08002244 0.4964295 -0.016301697
0.015620948 -0.024392486 0.1762482 -0.11139749 0.18159547 0.41102794 0.15086496 -0.012990148

weight f4 [1, 64]
00000000: 93fb 14bd f8b1 c6bc 5055 2e3d e931 6fbd
00000010: 47f3 463d c196 d6bc 7d99 0d3d bee3 1a3d
00000020: 1bcd 103c ac86 123d c2fa 13bd 6c96 a83d
00000030: e6ba 3abd d0ed dc3c a3dd f43d 988b 30bd
00000040: d4cd 5dbd d478 31bd 7f6c 033d 0084 01bd
00000050: 0073 c83c df0a 11bd f874 053d 1b91 133d
00000060: 9e18 0fbd 67c5 17bd abe8 aabc 0de5 bbbc
00000070: 451f 4ebd 115a 033e 2076 8bbc 565c 18bd
00000080: 3202 ec3c acb1 a4bc 6ed1 6d3d db00 b6bc
00000090: 47ff d2bc 3531 10bd 351f aabd 7dde 46bd
000000a0: f2c7 e9bc 2339 473d d19c e73d e0e8 ab3d
000000b0: 4996 f2bd 7791 763d 773b 023e 8ab0 cf3c
000000c0: 122d e3bc 6c01 7c3d 5fa0 84bc 7871 1ebd
000000d0: a384 babc 9b98 533d b7ae 96bd d809 bdbc
000000e0: 2bd6 c8bc eef9 083d d41e ecbc 6364 443d
000000f0: ad3e 093d a546 20bd 0a19 1b3d 2da7 9c3d
-0.036372732 -0.024254784 0.04256183 -0.058397207 0.04857185 -0.026194932 0.034570206 0.037814848
0.008837963 0.035772964 -0.036127813 0.08231816 -0.045588396 0.026968867 0.11956336 -0.043101877
-0.05415137 -0.04332812 0.03208589 -0.031620026 0.024468899 -0.035410758 0.032582253 0.036027055
-0.034935586 -0.037053492 -0.020862898 -0.022936368 -0.05032279 0.12827326 -0.0170241 -0.037197433
0.02880964 -0.020104252 0.058061056 -0.022217205 -0.025756491 -0.035203177 -0.083067335 -0.048552025
-0.028537724 0.048638474 0.11309207 0.08394027 -0.11845071 0.06019732 0.12717997 0.025352735
-0.027731452 0.061524794 -0.016189752 -0.03868243 -0.022768324 0.051659208 -0.07357543 -0.023075983
-0.024516186 0.033441477 -0.028823294 0.0479473 0.033507038 -0.039129872 0.037865676 0.07649074
